best_model.pth (torch, 675109 bytes, 6 tensors)

embedding.weight f4 [9124, 15]
0.62541574 1.0853587 1.5970668 1.6854256 -0.07487697 -0.07287725 -0.89008653 0.3325009
2.1840343 -1.5693383 -0.9852749 0.34700277 -0.40568516 2.1019814 0.6288119 0.0
0.0 0.0 0.0 0.0 0.0 0.0 0.0 0.0
0.0 0.0 0.0 0.0 0.0 0.0 -0.24054205 -0.78400517
0.56289834 -0.37038806 -0.970096 0.12631047 -1.2930834 2.5151706 -0.2817194 0.09285103
0.59394455 -0.9603554 -0.5042155 0.30540732 -0.12094047 2.1789167 -0.107634835 -1.9078777
0.41286206 -0.85661185 1.4391851 -1.1543022 0.4669081 0.8326528 0.39232016 0.57680154
-0.07915715 0.51645386 2.1011932 0.49531958 1.0812944 -0.6843205 2.0501401 -0.35464263
1.7647296 1.872107 -0.29653463 0.9391661 0.42268863 0.7686216 -0.3519296 1.270367
0.7335542 0.6405076 1.7811949 -1.1588356 -0.9129799 0.16724262 -0.9582858 0.3736687
1.0341023 1.7901167 0.54030025 -0.5346566 1.0575299 -0.21389359 0.94105536 -0.9208486
0.7403769 1.6387652 -1.3021739 -1.0366725 -1.0900441 1.7501775 0.34138152 1.4365375
0.92627543 -1.1715424 -0.9318671 -0.16232617 1.6029737 -1.7524403 1.0791491 -0.4340493
-0.491522 1.0416621 -0.6210744 -0.14914665 0.35988536 -0.01303191 0.41811413 0.6433708
-0.48342073 -0.5000891 -0.18683942 0.35205135 -0.6646653 -1.3636396 2.3883548 0.5838282
-1.4739773 -1.7498974 2.079617 -0.102202654 -0.1422272 -1.2712946 -0.34601414 1.3930011
1.3222084 0.7240712 -1.1962758 0.46204466 -0.6799797 0.8744619 0.82907027 -2.135778
1.3122553 0.20917201 -0.8180357 0.7038811 0.59599197 2.194717 -2.4694152 -1.803073
-0.70943266 -0.017202973 -0.41714442 -1.2880907 -0.4188493 0.5304457 -0.5507365 -1.3259563
0.11742027 0.44126984 -1.8291181 0.29327658 0.37738097 0.022609062 -1.4670749 1.3057033
1.0485325 -0.898202 1.1522537 1.4832635 -0.29011187 -0.83220845 0.048991878 0.7775813
-0.8435501 0.24479593 -2.0856838 -1.0891238 -1.4353814 2.486444 -0.3085306 -1.5775102
1.0573493 -1.5319777 -0.6098584 -2.0577486 0.9162775 -0.6059226 -1.1153381 -1.4881697
0.7189885 0.75273585 0.56238467 -0.2024289 -1.4488463 -0.66409236 -1.7441974 0.11647897
-0.84941053 1.1664225 0.15459642 0.6936225 1.1660471 -0.61043143 -0.859435 -0.8704751
1.8941607 -0.47420374 -0.24626933 1.3435477 -0.70258117 0.582184 0.7477907 -0.7712703
0.3386178 -1.856334 0.942336 2.4951086 1.4390506 -0.48900306 -0.8049293 1.1972952
-1.4792099 0.6044658 0.012608401 0.5636807 0.16396207 0.8135495 -1.039117 0.24045472
-2.0308821 0.49036047 -1.4135243 0.87598944 0.7775279 -0.29416713 1.0499129 -0.08974333
0.7203504 -1.7856679 -1.2615232 1.1350799 0.3294268 -0.07719345 -0.7905051 0.56485575
-0.77618665 -1.0297123 0.33703128 1.2166655 -1.1917406 -0.7947759 -0.91129684 -1.3039862
-0.45805883 -1.4917028 -0.2787805 1.0725139 0.21440126 1.0308329 -0.040590655 -0.99413526
00000000: 3f1b 203f 09ed 8a3f af6c cc3f 07bc d73f
00000010: 1959 99bd ab40 95bd b6dc 63bf 8f3d aa3e
00000020: 38c7 0b40 14e0 c8bf fa3a 7cbf 59aa b13e
00000030: f7b5 cfbe dd86 0640 d1f9 203f 0000 0000
00000040: 0000 0000 0000 0000 0000 0000 0000 0000
00000050: 0000 0000 0000 0000 0000 0000 0000 0000
00000060: 0000 0000 0000 0000 0000 0000 0000 0000
00000070: 0000 0000 0000 0000 a850 76be 90b4 48bf
00000080: 1b1a 103f 81a3 bdbe 3658 78bf 8857 013e
00000090: c283 a5bf 8ef8 2040 863d 90be ae28 be3d
000000a0: c00c 183f dad9 75bf 4414 01bf 595e 9c3e
000000b0: a3af f7bd 5f73 0b40 a76f dcbd 5635 f4bf
000000c0: a862 d33e ea4a 5bbf 3837 b83f 2dc0 93bf
000000d0: 940e ef3e bc28 553f 30de c83e 44a9 133f
000000e0: 251d a2bd 5236 043f f379 0640 879a fd3e
000000f0: db67 8a3f a12f 2fbf 7f35 0340 b893 b5be
00000100: a9e2 e13f 34a1 ef3f 63d3 97be 316d 703f
00000110: a56a d83e 63c4 443f 1e30 b4be 639b a23f
00000120: 35ca 3b3f 4ef8 233f 32fe e33f ba54 94bf
00000130: 0db9 69bf a641 2b3e 3852 75bf 8151 bf3e
00000140: 775d 843f 8b22 e53f 1e51 0a3f 41df 08bf
00000150: 245d 873f ec06 5bbe 01e9 703f bcbc 6bbf
00000160: 5789 3d3f 0fc3 d13f a2ad a6bf afb1 84bf
00000170: 9186 8bbf d105 e03f 8fc9 ae3e 76e0 b73f
00000180: 6320 6d3f 1af5 95bf d88e 6ebf d538 26be
00000190: 3e2e cd3f f74f e0bf 8f21 8a3f b63b debe
000001a0: c6a8 fbbe 2f55 853f bbfe 1ebf e6b9 18be
000001b0: e542 b83e cb83 55bc 0e13 d63e f3b3 243f
000001c0: ec82 f7be d705 00bf d552 3fbe 1340 b43e
000001d0: 8127 2abf be8b aebf ceda 1840 c475 153f
000001e0: 4aab bcbf a3fc dfbf 7218 0540 a04f d1bd
000001f0: 02a4 11be c8b9 a2bf c428 b1be dc4d b23f
00000200: 203e a93f bb5c 393f 911f 99bf 1e91 ec3e
00000210: 2613 2ebf bcdc 5f3f f33d 543f 96b0 08c0
00000220: fbf7 a73f 3031 563e ca6a 51bf 8d31 343f
00000230: ee92 183f 3e76 0c40 e60a 1ec0 19cb e6bf
00000240: 619d 35bf 40ed 8cbc f493 d5be 28e0 a4bf
00000250: 6a73 d6be 4acb 073f 11fd 0cbf f0b8 a9bf
00000260: 0a7a f03d 1fee e13e 8b20 eabf 5928 963e
00000270: 1438 c13e a436 b93c 1cc9 bbbf 4921 a73f
00000280: 5036 863f 91f0 65bf 0d7d 933f 94db bd3f
00000290: 8b89 94be 9d0b 55bf b5ab 483d 910f 473f
000002a0: e6f2 57bf c9ab 7a3e d87b 05c0 6968 8bbf
000002b0: 94ba b7bf e621 1f40 b9f7 9dbe dbeb c9bf
000002c0: 3957 873f d817 c4bf ae1f 1cbf 27b2 03c0
000002d0: 2a91 6a3f be1d 1bbf 66c3 8ebf 587c bebf
000002e0: a10f 383f 4cb3 403f 71f8 0f3f 8649 4fbe
000002f0: cc73 b9bf f501 2abf dc41 dfbf 878c ee3d
00000300: f872 59bf 554d 953f 864e 1e3e 3f91 313f
00000310: 0841 953f 3c45 1cbf ef03 5cbf 75d7 5ebf
00000320: dc73 f23f d5ca f2be 072e 7cbe 5ff9 ab3f
00000330: 5cdc 33bf 030a 153f 366f 3f3f f871 45bf
00000340: 505f ad3e 5a9c edbf ef3c 713f dcaf 1f40
00000350: cf32 b83f 9c5e fabe d90f 4ebf f840 993f
00000360: c056 bdbf 45be 1a3f 7793 4e3c 614d 103f
00000370: ace5 273e c844 503f c901 85bf c339 763e
00000380: f9f9 01c0 8710 fb3e 5dee b4bf d840 603f
00000390: 120c 473f 139d 96be 8c63 863f 5acb b7bd
000003a0: e268 383f c490 e4bf 9879 a1bf 4c4a 913f
000003b0: a1aa a83e 9917 9ebd 8b5e 4abf 639a 103f
000003c0: 2bb4 46bf 9dcd 83bf 5d8f ac3e b2bb 9b3f
000003d0: f58a 98bf 6f76 4bbf c04a 69bf 05e9 a6bf
000003e0: b086 eabe 1ef0 bebf 51bc 8ebe 2348 893f
000003f0: 018c 5b3e 55f2 833f 6342 26bd a67f 7ebf

lstm.weight_ih_l0 f4 [320, 15]
0.11518563 0.10029753 -0.054301415 -0.055615522 0.0009762011 0.06536339 -0.044994093 -0.15122807
0.05016096 0.037323248 0.055076852 0.063207455 -0.12004823 0.009778933 -0.13297282 0.15388109
-0.0037933677 0.006093367 -0.14841883 0.0490906 0.049684536 0.06422814 0.07738596 0.06808789
0.13433471 0.06795962 -0.058983453 -0.035470832 -0.1319513 -0.05412571 0.06635179 0.027026767
-0.026614942 0.039194457 0.059805024 0.021702064 -0.15191078 0.08838437 0.0069769425 -0.04522552
0.09343669 0.048193883 -0.11795577 0.015182519 0.08215782 0.019511659 -0.025286986 -0.17974868
-0.057855025 -0.07177115 -0.020303901 -0.13441122 -0.14392857 0.019587927 -0.07014909 -0.009447126
-0.15359417 0.016604278 0.099617295 -0.101637 0.2792231 -0.02118512 0.019079104 0.057162434
0.042064473 0.08307944 0.17806153 -0.037297703 0.08961095 -0.1430163 -0.19192407 0.13245003
-0.01619424 0.050769635 -0.002115094 -0.017594555 -0.035173997 -0.06645884 -0.123263836 0.051067922
0.03885991 -0.06959075 -0.09317079 0.1155263 0.12686984 0.01889631 0.15086311 -0.092318945
-0.23915339 -0.063126676 0.0042296266 -0.16133843 0.120494604 0.009175596 -0.056681644 0.10946075
-0.05958766 0.065115854 0.023859 -0.1307154 -0.13576537 0.06864801 -0.057135064 0.07416421
-0.06300311 0.022377748 0.13056481 0.09506296 0.042712007 0.1039788 0.19025894 0.12355093
0.14486395 -0.11478271 0.032590017 0.13087818 0.058366086 0.14493114 -0.081564605 0.006839562
0.036880296 -0.061242126 -0.058362428 0.13949531 0.004136169 0.11028815 0.02249556 0.0096555315
0.079195455 -0.0069629634 0.020787118 0.053099852 0.0517299 0.04062724 0.06853269 -0.029543713
-0.049813166 -0.13999611 -0.04632434 -0.060124837 0.037552968 -0.12721777 0.11625487 -0.06522959
-0.055923805 -0.09469377 -0.012638086 0.12798999 -0.08312405 -0.024959622 -0.088704064 -0.0025178122
-0.1518285 -0.068100564 -0.0048246286 -0.032786608 -0.124296114 -0.030293494 0.0117585845 0.039969496
0.052810576 0.13430505 -0.085178524 0.089813076 0.1013115 -0.19740702 0.11606762 -0.12195761
-0.032694604 0.17714556 0.041475266 -0.1642848 -0.05942398 0.17376316 -0.16927631 0.0010907231
0.048149757 0.018222043 -0.09709835 0.18111813 -0.097935595 0.12587318 0.046395175 0.115088336
0.12887584 -0.060021974 -0.19443724 0.04830591 -0.16126214 -0.24304931 -0.22026551 0.10781804
-0.07831774 0.048182618 -0.023926277 -0.15750691 0.14913516 -0.079222776 0.030129863 0.13986987
0.14453588 -0.2130243 -0.15290457 0.07249886 0.010200783 -0.20027176 0.024058007 0.09662854
-0.0028179956 0.16343644 0.009104395 0.0211134 -0.1613378 0.12026428 0.1882022 0.025669003
-0.10418248 -0.31076184 0.027042763 0.11617389 0.15852077 -0.035044268 -0.22060573 0.029072741
0.21525025 -0.049049266 0.052703567 0.070887506 0.2190639 -0.10049653 -0.1240505 -0.19794779
-0.20517957 0.083641335 -0.026452564 -0.043412015 0.1518538 -0.10535119 0.027461162 0.05123163
0.10908055 0.04552783 0.027353186 -0.1083136 -0.0027461583 -0.20104708 0.10691819 0.094821915
0.020583535 0.08987531 -0.053663567 0.042060956 0.10196705 0.03164664 -0.09501873 -0.11476365
00000000: 72e6 eb3d cb68 cd3d 296b 5ebd 1acd 63bd
00000010: bfe7 7f3a 3edd 853d ba4b 38bd 88db 1abe
00000020: 9475 4d3d 43e0 183d 4498 613d e972 813d
00000030: d9db f5bd d137 203c 072a 08be 0193 1d3e
00000040: 269a 78bb deaa c73b 1bfb 17be 3a13 493d
00000050: 0382 4b3d 0b8a 833d 887c 9e3d aa71 8b3d
00000060: 0a8f 093e 6a2e 8b3d a298 71bd dd49 11bd
00000070: 3e1e 07be ecb2 5dbd 73e3 873d 3d67 dd3c
00000080: 9407 dabc 5e8a 203d 1df6 743d 87c8 b13c
00000090: 808e 1bbe dd02 b53d d69e e43b 653e 39bd
000000a0: bc5b bf3d f366 453d cb92 f1bd 1ac0 783c
000000b0: 5c42 a83d ead6 9f3c a726 cfbc 0a10 38be
000000c0: 64f9 6cbd c1fc 92bd 5e54 a6bc 18a3 09be
000000d0: 0362 13be dc76 a03c 53aa 8fbd 1ec8 1abc
000000e0: ca47 1dbe b205 883c 2704 cc3d 0f27 d0bd
000000f0: 55f6 8e3e 6b8c adbc c84b 9c3c 2823 6a3d
00000100: cc4b 2c3d 8e25 aa3d c355 363e 7ac5 18bd
00000110: f285 b73d dd72 12be be87 44be fba0 073e
00000120: c8a9 84bc d2f3 4f3d 649d 0abb 7522 90bc
00000130: 9c12 10bd 931b 88bd c071 fcbd 992c 513d
00000140: 922b 1f3d 9885 8ebd 54d0 bebd 0e99 ec3d
00000150: 2bea 013e 6fcc 9a3c dc7b 1a3e b711 bdbd
00000160: a0e4 74be 8f48 81bd ae98 8a3b e735 25be
00000170: e0c5 f63d 3d55 163c 032b 68bd f52c e03d
00000180: 3112 74bd 765b 853d f373 c33c 42da 05be
00000190: 1406 0bbe 5497 8c3d 7506 6abd 68e3 973d
000001a0: c607 81bd 8a51 b73c c8b2 053e 5fb0 c23d
000001b0: c9f2 2e3d d6f2 d43d 3dd3 423e 4508 fd3d
000001c0: 3757 143e 3313 ebbd 1c7d 053d ee04 063e
000001d0: 4711 6f3d d468 143e 580b a7bd 681e e03b
000001e0: cb0f 173d 06d9 7abd 710d 6fbd dcd7 0e3e
000001f0: b388 873b c1de e13d 9c48 b83c 3c32 1e3c
00000200: 3a31 a23d 9229 e4bb bf49 aa3c 3b7f 593d
00000210: bbe2 533d c068 263d de5a 8c3d a805 f2bc
00000220: e408 4cbd 245b 0fbe 97be 3dbd 7645 76bd
00000230: 24d1 193d 6045 02be 0917 ee3d 1797 85bd
00000240: 5c10 65bd cfee c1bd fa0f 4fbc cf0f 033e
00000250: f13c aabd 1f78 ccbc 7aaa b5bd e101 25bb
00000260: ee78 1bbe 4f78 8bbd eb17 9ebb 404b 06bd
00000270: f68e febd 102a f8bc 14a7 403c 0eb7 233d
00000280: e74f 583d 4387 093e 1472 aebd ebef b73d
00000290: 677c cf3d 1125 4abe dcb4 ed3d e9c4 f9bd
000002a0: c7ea 05bd a565 353e f8e1 293d 463a 28be
000002b0: 8f66 73bd f8ee 313e c556 2dbe 98f6 8e3a
000002c0: ae38 453d 6546 953c 80db c6bd 0877 393e
000002d0: 7592 c8bd e6e4 003e de08 3e3d 6fb3 eb3d
000002e0: 07f8 033e 9ad9 75bd 8e1a 47be 6bdc 453d
000002f0: e721 25be ebe1 78be 488d 61be b4cf dc3d
00000300: 0d65 a0bd 235b 453d 0a01 c4bc 7e49 21be
00000310: e3b6 183e 8d3f a2bd e7d2 f63c 0c3a 0f3e
00000320: 3701 143e 0b23 5abe 0493 1cbe 487a 943d
00000330: 2f21 273c 0a14 4dbe 4c15 c53c 2fe5 c53d
00000340: 1fae 38bb e25b 273e 9a2a 153c 02f6 ac3c
00000350: bc35 25be 1e4d f63d 14b8 403e cd47 d23c
00000360: a05d d5bd 2d1c 9fbe c988 dd3c 94ec ed3d
00000370: 4553 223e 948a 0fbd 78e6 61be f529 ee3c
00000380: 906a 5c3e e2e7 48bd b2df 573d 782d 913d
00000390: 4952 603e 20d1 cdbd 300e febd d3b2 4abe
000003a0: 981a 52be 264c ab3d 0cb3 d8bc ccd0 31bd
000003b0: 907f 1b3e 5dc2 d7bd 3bf6 e03c 42d8 513d
000003c0: a065 df3d 647b 3a3d ca13 e03c 85d3 ddbd
000003d0: e4f8 33bb 49df 4dbe edf7 da3d fe31 c23d
000003e0: cd9e a83c 8c10 b83d 54ce 5bbd 1c48 2c3d
000003f0: 1ad4 d03d e89f 013d 2e99 c2bd 3409 ebbd

lstm.weight_hh_l0 f4 [320, 80]
0.103581734 0.046100315 -0.08555551 -0.11228725 0.14891846 0.12657338 -0.051923756 -0.042431626
-0.14360829 -0.006611472 -0.026189549 -0.07091794 -0.0052240854 -0.06183266 0.11237836 -0.028455582
-0.0026263283 0.00989684 -0.12198328 0.0042133853 0.06659663 0.035199415 0.00932961 0.019008152
-0.026699167 -0.08229189 -0.098823234 0.024941027 0.11526899 -0.07121563 0.14116873 0.008755789
-0.11879573 0.13273984 -0.06889561 -0.006388949 -0.03833492 0.09100012 0.06756426 0.033995956
-0.066222295 -0.0025300228 -0.06183971 -0.1203997 0.033540078 0.048389986 -0.055034306 -0.017786095
0.053501908 0.10174399 -0.06400851 0.07581544 -0.101058096 -0.021059759 0.117974974 -0.0034101617
0.07243515 -0.053255472 -0.14067645 -0.031896323 0.0064782323 -0.0150467465 0.04870007 0.045353584
-0.12766056 -0.12398576 0.16686252 -0.026569381 0.028278526 -0.0105756335 -0.12588191 -0.034069113
0.04385388 0.012832687 -0.1636402 -0.02687513 0.008059796 -0.06996268 -0.043755088 -0.07270059
-0.0062802113 0.014133849 0.070548505 0.033403404 -0.0019241747 -0.027843742 -0.07172137 0.09378952
-0.065310515 -0.055927943 -0.09470717 -0.11274984 -0.06156956 -0.028390085 0.06775258 -0.0575177
0.030209668 -0.011512836 0.019415895 0.09518679 0.031035207 0.08153129 -0.07474881 -0.0012746339
-0.08590585 -0.077621445 -0.08694953 -0.0754444 -0.11223249 -0.045578044 0.03217463 0.06575286
-0.12320268 -0.021173686 -0.02736467 -0.075478144 -0.056331508 0.11842136 -0.08257695 -0.029451841
-0.025064994 -0.05845242 -0.12703851 -0.022988042 0.065091416 -0.10035496 -0.119967274 0.10039961
0.01674756 0.09804123 -0.019197587 -0.08193119 0.045945585 -0.028763603 -0.014619881 0.11688337
0.04284007 -0.030855868 0.103568844 -0.09195722 0.12533517 0.013905128 -0.02621802 -0.04352286
0.07151187 -0.009449767 -0.0808068 0.03927714 -0.06799433 0.004463767 -0.06958979 0.0075368695
0.09493684 0.07500074 -0.0945959 0.0046635205 0.056960285 0.06703129 -0.08863886 -0.09759714
0.1309648 -0.06585808 -0.06781881 0.013881265 0.011325551 -0.011221894 -0.10979674 0.086790256
0.079047605 0.08198047 -0.006200952 0.037119918 0.08415854 0.07189482 0.005742185 0.028168777
-0.09885011 0.06275678 0.07955858 -0.050753992 -0.021903094 0.020353587 0.05712666 -0.01965806
-0.013343416 0.05189741 -0.072050914 -0.028710395 0.10576255 0.08396763 -0.022553489 -0.08300649
0.026138114 -0.022077233 0.07609151 0.111152016 -0.06753358 0.024002453 -0.08470264 -0.10338322
0.074057505 -0.0052500493 0.048278395 0.09555342 -0.05977474 -0.09975522 0.011279204 0.08674573
-0.06063391 -0.0068414714 0.08468303 0.094805196 0.08784991 -0.039347254 -0.02391517 0.04113884
0.054623727 0.08814749 -0.07476722 0.106928736 0.048972927 0.026874399 0.030341012 0.021267477
-0.10017089 -0.043525185 0.045299876 -0.008493373 -0.010833287 -0.108277634 -0.009613132 -0.07510459
0.071209766 0.058883436 -0.06199431 -0.03752786 -0.026010612 0.0004491231 0.028275764 0.04784752
-0.10265901 0.15869367 -0.047365334 -0.06463815 0.02185525 -0.00013045856 -0.15077752 -0.029223697
-0.08023932 0.03151513 0.08202505 0.04163728 0.015399041 0.0143011445 -0.067969024 0.06887084
00000000: a922 d43d afd3 3c3d ba37 afbd dcf6 e5bd
00000010: 157e 183e 749c 013e 01ae 54bd c9cc 2dbd
00000020: 0d0e 13be 0ca5 d8bb 778b d6bc 6d3d 91bd
00000030: ce2e abbb 3e44 7dbd a026 e63d ae1b e9bc
00000040: 7a1e 2cbb 5b26 223c 5fd2 f9bd 7010 8a3b
00000050: d063 883d 432d 103d 38db 183c fcb6 9b3c
00000060: 36b8 dabc a788 a8bd d663 cabd 2051 cc3c
00000070: 2612 ec3d 80d9 91bd 898e 103e 7174 0f3c
00000080: 2d4b f3bd f4ec 073e 2419 8dbd 645a d1bb
00000090: 1405 1dbd 455e ba3d 215f 8a3d 583f 0b3d
000000a0: 8e9f 87bd bdce 25bb a34b 7dbd 1e94 f6bd
000000b0: 5261 093d 9434 463d a76b 61bd 25b4 91bc
000000c0: d124 5b3d 275f d03d e516 83bd 2045 9b3d
000000d0: 8cf7 cebd 8485 acbc dd9c f13d 057d 5fbb
000000e0: e158 943d 6922 5abd 7d0d 10be b8a5 02bd
000000f0: 5a47 d43b a186 76bc b979 473d aec4 393d
00000100: 73b9 02be 3fec fdbd 02de 2a3e 08a8 d9bc
00000110: 5ea8 e73c 6c45 2dbc 30e7 00be 0e8c 0bbd
00000120: 20a0 333d 3140 523c 4c91 27be 3c29 dcbc
00000130: 3c0d 043c 9848 8fbd 8938 33bd 0ce4 94bd
00000140: 3bca cdbb a991 673c bc7b 903d 02d2 083d
00000150: 9734 fcba 8f18 e4bc a7e2 92bd b814 c03d
00000160: 85c1 85bd b314 65bd d5f5 c1bd 63e9 e6bd
00000170: 5d30 7cbd 5392 e8bc ddc1 8a3d ae97 6bbd
00000180: 447a f73c 56a0 3cbc 150e 9f3c 4bf1 c23d
00000190: 8c3d fe3c e1f9 a63d e715 99bd 9e11 a7ba
000001a0: 68ef afbd fef7 9ebd 9812 b2bd 9882 9abd
000001b0: 26da e5bd 0bb0 3abd 8bc9 033d 6fa9 863d
000001c0: b051 fcbd 7074 adbc df2b e0bc 4994 9abd
000001d0: debb 66bd e686 f23d 1b1e a9bd fd44 f1bc
000001e0: 1a55 cdbc ce6b 6fbd 6216 02be 6b51 bcbc
000001f0: a64e 853d e786 cdbd 67b1 f5bd 509e cd3d
00000200: 2e32 893c d7c9 c83d 4244 9dbc 8acb a7bd
00000210: 7031 3c3d a6a1 ebbc 3a88 6fbc 8c60 ef3d
00000220: 1279 2f3d 72c5 fcbc e71b d43d 1154 bcbd
00000230: dd57 003e 56d2 633c 2cc7 d6bc 0745 32bd
00000240: d174 923d 32d3 1abc 097e a5bd 11e1 203d
00000250: 9c40 8bbd cb44 923b 1885 8ebd d8f7 f63b
00000260: 3f6e c23d fd99 993d 7fbb c1bd 72d0 983b
00000270: 304f 693d b347 893d 4a88 b5bd 02e1 c7bd
00000280: a31b 063e 9ae0 86bd 97e4 8abd 3f6e 633c
00000290: ce8e 393c 09dc 37bc 1ddd e0bd 17bf b13d
000002a0: b6e3 a13d 60e5 a73d 5b31 cbbb 0e0b 183d
000002b0: 505b ac3d 973d 933d f028 bc3b 35c2 e63c
000002c0: ed71 cabd a086 803d 9cef a23d 6be3 4fbd
000002d0: 1e6e b3bc 91bc a63c a5fd 693d f109 a1bc
000002e0: 589e 5abc 6192 543d 6e8f 93bd 1032 ebbc
000002f0: 099a d83d 39f7 ab3d 18c2 b8bc 4eff a9bd
00000300: 991f d63c 50db b4bc ded5 9b3d aba3 e33d
00000310: 0c4f 8abd cba0 c43c 9478 adbd 95ba d3bd
00000320: 76ab 973d 9b08 acbb 91bf 453d 83b1 c33d
00000330: 5cd6 74bd 774c ccbd 69cc 383c bfa7 b13d
00000340: 435b 78bd 6c2e e0bb 4c6e ad3d 3a29 c23d
00000350: a7ea b33d 962a 21bd bfe9 c3bc 3381 283d
00000360: 21bd 5f3d ac86 b43d 8e1f 99bd 74fd da3d
00000370: d697 483d b327 dc3c b78d f83c 2239 ae3c
00000380: 6526 cdbd 7747 32bd 5d8c 393d ca27 0bbc
00000390: 197e 31bc aac0 ddbd 6680 1dbc 6fd0 99bd
000003a0: 6dd6 913d c22f 713d bfed 7dbd d0b6 19bd
000003b0: 3514 d5bc 4878 eb39 93a2 e73c c3fb 433d
000003c0: e33e d2bd 9880 223e 2702 42bd 0261 84bd
000003d0: c809 b33c b4cb 08b9 6c65 1abe 8966 efbc
000003e0: 8354 a4bd 0216 013d c0fc a73d da8b 2a3d
000003f0: 424c 7c3c 594f 6a3c 5833 8bbd 280c 8d3d

lstm.bias_ih_l0 f4 [320]
0.039282594 0.019553004 -0.07646079 -0.003926967 -0.013349264 -0.10414625 0.032151833 0.10081682
0.055227883 -0.11108707 0.101060115 0.14176852 0.07349904 -0.07734828 -0.06615751 -0.03827285
-0.07370152 0.04746601 0.0748014 -0.01226972 -0.070919916 -0.06341374 0.0017844157 0.07678843
0.14033379 0.14332233 -0.034336925 -0.02238906 0.06592161 -0.029665953 0.07008383 0.048116174
-0.017772064 0.02665173 -0.016195077 0.032878626 -0.033533942 0.000573764 0.077194735 -0.007068739
0.11226846 0.041418523 -0.022093864 0.047157783 -0.012072048 -0.05230838 0.006959049 0.08967311
0.06510283 0.017102681 0.07461942 0.16918524 -0.07587135 0.06222882 0.0025754066 0.11165712
-0.04630217 -0.008275697 -0.020209163 -0.033857174 -0.0674419 0.024671653 0.06915615 0.12765464
0.013393365 -0.033649277 0.04779186 -0.021275725 -0.050678533 -0.0965108 0.060654443 -0.019365061
0.021269485 -0.099690095 0.00058514916 0.1723682 0.011240694 -0.10472589 -0.07637384 -0.09989308
-0.15117292 -0.07795788 -0.028380139 -0.015707193 -0.089787655 0.032834567 0.10714735 -0.048833236
-0.012765755 -0.043104533 0.1054882 0.09582411 0.13173947 -0.07987929 0.0066703088 -0.0006235659
0.09454151 0.031018406 -0.025649158 -0.076676704 -0.056221407 -0.06685113 0.071025506 -0.045561466
0.043624714 0.0981942 -0.06851386 0.023143006 -0.09826461 -0.024936622 -0.06570601 -0.004365897
-0.09211439 0.15126354 -0.053884823 -0.024185894 -0.012471832 -0.019155411 -0.09196591 -0.09195894
-0.008971827 0.031460695 -0.09421533 -0.068235494 -0.01441072 0.11187108 0.10464646 0.075232096
0.05743048 0.016180968 -0.0006985896 0.14315458 -0.061533704 -0.037432 -0.062126942 0.15598999
-0.06442562 -0.13422956 -0.016453808 -0.015551706 0.12774228 -0.09152375 -0.06960089 -0.03362972
0.0825773 0.009444007 -0.08071462 -0.010574913 0.011334848 0.05071292 0.05698382 -0.06310911
-0.019063598 0.036884356 0.09948733 -0.05202623 0.10348805 0.018085284 -0.037326857 0.12766424
0.059203327 -0.101438686 0.0528221 0.045713678 -0.031222142 0.009510596 0.12412676 0.02815719
0.08548354 -0.09546283 -0.08177968 0.081425995 0.1246828 0.15999462 -0.05020987 0.09012372
-0.08573531 -0.111148596 0.13333352 0.087363265 -0.065249145 -0.027149633 -0.11572093 0.08370628
0.016071836 0.07722855 0.023398388 0.13263382 0.047224164 0.02189432 -0.0053908317 -0.11125763
-0.043560714 -0.027849885 0.006133662 -0.050592203 -0.13141541 -0.072896056 -0.118250996 -0.11160166
0.06314269 -0.059284363 0.15940927 0.114018 0.022313489 0.12598938 0.057285868 -0.1690334
-0.09947019 -0.1460274 0.07656705 -0.1565995 0.073985115 0.003747968 -0.021301929 -0.14673124
-0.07638659 0.05279589 0.15009764 -0.15523839 0.02917033 -0.09323272 -0.0048013264 0.069869116
0.15636422 -0.034973968 -0.14447923 0.10356256 0.06745116 0.031261183 0.1000745 0.08585262
-0.08430013 0.03138964 0.10773082 0.15944202 0.14041147 -0.01440307 0.12212478 -0.10642599
-0.08130674 -0.070124306 -0.07037797 -0.13917422 0.0840261 -0.13201955 -0.04953456 -0.024445271
0.01641862 -0.017127605 0.01834389 -0.074465826 -0.006538147 -0.0058333953 0.124512985 -0.077987544
00000000: c9e6 203d 9f2d a03c 7a97 9cbd c9ad 80bb
00000010: dfb6 5abc a14a d5bd a4b1 033d 0d79 ce3d
00000020: a236 623d 9e81 e3bd 9bf8 ce3d c42b 113e
00000030: aa86 963d c668 9ebd 977d 87bd fec3 1cbd
00000040: d3f0 96bd b86b 423d 7a31 993d f006 49bc
00000050: 763e 91bd 10df 81bd 0ee3 e93a 4143 9d3d
00000060: a9b3 0f3e 17c3 123e e0a4 0cbd 4369 b7bc
00000070: e901 873d 0306 f3bc 1c88 8f3d 7715 453d
00000080: b896 91bc bb54 da3c 8aab 84bc bdab 063d
00000090: e35a 09bd a668 163a 4618 9e3d e1a0 e7bb
000000a0: 02ed e53d 78a6 293d 31fe b4bc 8528 413d
000000b0: d7c9 45bc 5041 56bd bc08 e43b 89a6 b73d
000000c0: a254 853d ec1a 8c3c 11d2 983d e53e 2d3e
000000d0: 7062 9bbd a6e3 7e3d 27c8 283b 7dac e43d
000000e0: 58a7 3dbd ca96 07bc b08d a5bc d2ad 0abd
000000f0: fb1e 8abd 351c ca3c bda1 8d3d e6b7 023e
00000100: d86f 5b3c d3d3 09bd 66c1 433d 6e4a aebc
00000110: 4b94 4fbd 74a7 c5bd cb70 783d 7aa3 9ebc
00000120: 583d ae3c 522a ccbd b264 193a 4a81 303e
00000130: e32a 383c 877a d6bd e369 9cbd be94 ccbd
00000140: 13cd 1abe 62a8 9fbd 777d e8bc 5fac 80bc
00000150: 97e2 b7bd 8a7d 063d 1270 db3d 5c05 48bd
00000160: 7527 51bc 618e 30bd 330a d83d 6e3f c43d
00000170: b6e6 063e c197 a3bd 9b92 da3b cd76 23ba
00000180: fb9e c13d 501a fe3c 2f1e d2bc ad08 9dbd
00000190: 6b48 66bd 3fe9 88bd d275 913d a99e 3abd
000001a0: d4af 323d 0a1a c93d ff50 8cbd 6796 bd3c
000001b0: f53e c9bd e347 ccbc df90 86bd cc0f 8fbb
000001c0: 78a6 bcbd d4e4 1a3e 55b6 5cbd 7f21 c6bc
000001d0: a856 4cbc cfeb 9cbc 9f58 bcbd f854 bcbd
000001e0: 92fe 12bc eedc 003d f8f3 c0bd 0dbf 8bbd
000001f0: f11a 6cbc aa1c e53d e250 d63d 4913 9a3d
00000200: 393c 6b3d f38d 843c 8e21 37ba 1d97 123e
00000210: c40a 7cbd 4c52 19bd d278 7ebd d7bb 1f3e
00000220: 94f1 83bd 7973 09be 23ca 86bc 95cc 7ebc
00000230: dfce 023e ce70 bbbd e98a 8ebd 51bf 09bd
00000240: 4a1e a93d 09bb 1a3c b54d a5bd 6642 2dbc
00000250: ccb5 393c 5ab8 4f3d de67 693d 593f 81bd
00000260: 432b 9cbc 0d14 173d 03c0 cb3d 7519 55bd
00000270: 8bf1 d33d 9727 943c 0ce4 18bd 6aba 023e
00000280: 307f 723d 16bf cfbd fd5b 583d 443e 3b3d
00000290: 94c5 ffbc 55d2 1b3c 2c36 fe3d e8a9 e63c
000002a0: ff11 af3d 0482 c3bd 1b7c a7bd acc2 a63d
000002b0: b259 ff3d a1d5 233e dda8 4dbd c992 b83d
000002c0: ff95 afbd e0a1 e3bd 9588 083e 83eb b23d
000002d0: 58a1 85bd e868 debc 18ff ecbd 336e ab3d
000002e0: 15a9 833c 012a 9e3d faad bf3c 29d1 073e
000002f0: 206e 413d b85b b33c 93a5 b0bb 0adb e3bd
00000300: b86c 32bd 7125 e4bc e3fc c83b c539 4fbd
00000310: c391 06be 874a 95bd 942d f2bd 698f e4bd
00000320: f450 813d 29d4 72bd 2f3c 233e 4582 e93d
00000330: c7ca b63c 5c03 013e 96a4 6a3d 1717 2dbe
00000340: 07b7 cbbd 3588 15be 2fcf 9c3d 9f5b 20be
00000350: 8285 973d 78a0 753b 6281 aebc b740 16be
00000360: 9370 9cbd 8140 583d 32b3 193e d0f6 1ebe
00000370: 9ef6 ee3c ccf0 bebd 7254 9dbb 8a17 8f3d
00000380: f11d 203e dd40 0fbd 5df2 13be 9c18 d43d
00000390: d523 8a3d ba0b 003d dcf3 cc3d 80d3 af3d
000003a0: 8ca5 acbd 6c92 003d faa1 dc3d c544 233e
000003b0: 06c8 0f3e dbfa 6bbc 8f1c fa3d dff5 d9bd
000003c0: 2684 a6bd 559d 8fbd 5322 90bd b083 0ebe
000003d0: e015 ac3d 2230 07be c0e4 4abd 7341 c8bc
000003e0: 5780 863c 314f 8cbc ed45 963c 8a81 98bd
000003f0: f43d d6bb 1126 bfbb aa00 ff3d efb7 9fbd

lstm.bias_hh_l0 f4 [320]
-0.04212019 0.10667616 -0.08896516 -0.06445277 0.12274906 -0.18284562 0.0036955646 0.10301847
0.034335975 -0.117229424 -0.031721726 -0.06507938 0.13634746 -0.019114362 -0.01399201 -0.027584285
-0.04692737 0.03508019 0.12037722 0.07829181 0.061987076 -0.052780714 0.015551888 -0.050718453
-0.047836166 0.07162001 0.047765676 0.07927112 -0.013270592 -0.031487875 0.032193385 0.021618446
-0.00031571693 0.15131232 0.067034975 0.008275608 0.0027430076 0.035254385 -0.11217689 -0.13531373
0.08162061 0.014554944 -0.060258783 0.07864364 -0.05945617 0.006670713 0.0904151 0.12652063
0.14587195 0.059645254 -0.0525331 0.14322521 -0.002461004 -0.032721046 0.070942104 0.031892
0.027662383 -0.09329102 0.0014794605 0.046940517 0.12043082 -0.13048655 0.09108317 0.06295624
0.1327313 0.01952591 0.01196097 0.0030828388 -0.02611866 -0.10007734 -0.030215487 0.01596075
-0.026523622 -0.14208217 -0.09604538 0.15912229 0.13606763 -0.0947804 -0.03555627 -0.022576839
-0.036473338 0.07352586 0.0984852 -0.103592604 -0.019606745 -0.1453734 0.061124865 0.12380161
0.09889551 -0.11148056 0.16177522 0.06699139 0.1259265 0.030102327 0.068344615 -0.014573742
-0.0072593973 0.043618694 0.020524962 -0.028991373 0.10188121 0.045115065 -0.10824252 -0.046517957
-0.04882571 0.050626498 0.0062924894 0.029960835 -0.11065254 -0.068963036 0.068839125 -0.040359374
0.09491517 0.058224156 0.019584764 -0.0934928 0.14832096 0.07870316 -0.09463701 -0.15733655
0.05268475 0.011965917 0.020158255 -0.0050760806 0.013388968 -0.06974847 0.019321203 0.12432984
0.066280626 0.09278326 0.020750038 0.15232152 0.038744345 0.16829836 0.089323945 -0.0029947304
0.021555094 -0.08503803 0.10425285 -0.04591564 0.037290044 -0.06321194 -0.010593419 -0.08181582
0.026975833 -0.035010237 0.019769365 -0.054149374 -0.039427407 -0.049049124 -0.02364818 0.14341708
-0.02580442 -0.093310125 -0.106513105 -0.010110466 0.043005537 -0.03290427 0.071400344 0.09375429
-0.029867884 -0.1498206 0.1016329 -0.03013487 -0.09745954 -0.068317 0.10155674 0.15400301
0.12048605 -0.020670809 -0.17285608 0.07138711 0.13715859 0.020680947 -0.1103667 0.08574857
-0.053361084 -0.17938353 0.0065891948 0.060990214 0.09007227 0.12528661 -0.0817919 0.09535869
0.17721868 0.11049206 0.07158702 -0.0087412065 -0.11150523 0.17476729 -0.11227303 -0.07976474
0.1600992 -0.1445762 0.082705684 -0.08440151 -0.10478747 -0.036896273 -0.09966904 -0.085833356
0.18026558 -0.14645112 -0.03028464 0.13677649 0.14086737 0.05523564 0.13133094 -0.073438495
-0.0475447 -0.112894066 0.1272454 -0.15052973 0.047554106 0.14347272 -0.07821572 -0.0037706501
-0.09193945 -0.061329123 0.1428389 -0.12044889 -0.17795268 -0.06931778 -0.18072198 0.011185912
0.097023755 0.14918706 -0.07644023 0.14867266 -0.14246626 0.032293186 -0.004823358 0.15252043
0.012043534 -0.037614044 0.12301367 0.16278863 0.12636007 0.079557516 0.02062395 -0.08928062
0.034051333 0.112449594 -0.09821536 0.0084575275 -0.03192648 -0.042639803 0.11148031 0.10375019
0.036670115 -0.1405247 0.042301048 -0.07796525 0.13721265 -0.09270426 0.14486484 0.121274844
00000000: 3886 2cbd 0879 da3d 5e33 b6bd d0ff 83bd
00000010: dc63 fb3d e23b 3bbe 4931 723b 59fb d23d
00000020: e1a3 0c3d fb15 f0bd a4ee 01bd 5748 85bd
00000030: ab9e 0b3e b995 9cbc be3e 65bc 70f8 e1bc
00000040: ea36 40bd 3fb0 0f3d 5588 f63d 7557 a03d
00000050: 29e6 7d3d 9730 58bd 59cd 7e3c 27be 4fbd
00000060: dbef 43bd 83ad 923d f1a5 433d e658 a23d
00000070: e66c 59bc 6ef9 00bd 36dd 033d 2b19 b13c
00000080: cf86 a5b9 9ef1 1a3e a249 893d 6a96 073c
00000090: 08c4 333b e766 103d ffbc e5bd af8f 0abe
000000a0: b528 a73d dc77 6e3c ead1 76bd eb0f a13d
000000b0: 5088 73bd ff95 da3b 8d2b b93d a08e 013e
000000c0: 755f 153e 954e 743d f32c 57bd a1a9 123e
000000d0: cc48 21bb 8106 06bd 184a 913d 30a1 023d
000000e0: 399c e23c 5d0f bfbd 75ea c13a b344 403d
000000f0: 6fa4 f63d 449e 05be d089 ba3d 33ef 803d
00000100: b7ea 073e cdf4 9f3c f2f7 433c 7409 4a3b
00000110: cdf6 d5bc 59f5 ccbd 7886 f7bc 1ec0 823c
00000120: 1148 d9bc fd7d 11be 71b3 c4bd f4f0 223e
00000130: 5055 0b3e 3a1c c2bd 74a3 11bd 10f3 b8bc
00000140: 1165 15bd ba94 963d 9cb2 c93d 5c28 d4bd
00000150: 539e a0bc c4dc 14be 115e 7a3d b38b fd3d
00000160: bb89 ca3d eb4f e4bd 67a8 253e c832 893d
00000170: e0f2 003e 2899 f63c 43f8 8b3d b4c6 6ebc
00000180: 3de0 edbb 84a9 323d f723 a83c 517f edbc
00000190: 19a7 d03d 93ca 383d 41ae ddbd 9d89 3ebd
000001a0: 78fd 47bd bb5d 4f3d 3a31 ce3b 6d70 f53c
000001b0: cd9d e2bd 7e3c 8dbd 87fb 8c3d df4f 25bd
000001c0: e262 c23d 747c 6e3d 3a70 a03c 2779 bfbd
000001d0: 73e1 173e 1f2f a13d 0cd1 c1bd d51c 21be
000001e0: f7cb 573d b20c 443c ed22 a53c 4055 a6bb
000001f0: 675d 5b3c 49d8 8ebd 8047 9e3c a5a0 fe3d
00000200: 23be 873d 2605 be3d fcfb a93c 2cfa 1b3e
00000210: 64b2 1e3d 6856 2c3e 79ef b63d 3d43 44bb
00000220: 4f94 b03c 6b28 aebd 8582 d53d 0a12 3cbd
00000230: 72bd 183d 4375 81bd 0590 2dbc 0d8f a7bd
00000240: 6cfc dc3c e566 0fbd 5df3 a13c bccb 5dbd
00000250: a27e 21bd bce7 48bd d4b9 c1bc eddb 123e
00000260: ca63 d3bc 6119 bfbd 8b23 dabd 5ea6 25bc
00000270: 9326 303d a1c6 06bd 583a 923d 4002 c03d
00000280: 7ead f4bc 926a 19be e924 d03d 67dd f6bc
00000290: de98 c7bd c9e9 8bbd fbfc cf3d f7b2 1d3e
000002a0: 64c1 f63d d455 a9bc 2f01 31be 6833 923d
000002b0: 4d73 0c3e 176b a93c f007 e2bd f29c af3d
000002c0: 2791 5abd 51b0 37be 2cea d73b e0d0 793d
000002d0: cf77 b83d 224b 003e 8382 a7bd 6b4b c33d
000002e0: d078 353e a949 e23d 379c 923d 4737 0fbc
000002f0: db5c e4bd 32f6 323e 67ef e5bd b25b a3bd
00000300: 0bf1 233e c90b 14be 9961 a93d b3da acbd
00000310: d09a d6bd 8c20 17bd 481f ccbd 66c9 afbd
00000320: 8a97 383e 48f7 15be 7e17 f8bc 230f 0c3e
00000330: 893f 103e c43e 623d 9e7b 063e ec66 96bd
00000340: 3bbe 42bd 0135 e7bd 9e4c 023e 7724 1abe
00000350: 18c8 423d 83ea 123e 902f a0bd 031d 77bb
00000360: c04a bcbd 3f34 7bbd 5c44 123e e8ad f6bd
00000370: 3a39 36be 7bf6 8dbd 2f0f 39be 1e45 373c
00000380: 64b4 c63d 7ec4 183e b28c 9cbd a53d 183e
00000390: ade2 11be dc45 043d 420d 9ebb 512e 1c3e
000003a0: 3e52 453c 2f11 1abd 97ee fb3d 10b2 263e
000003b0: 8964 013e 0def a23d 8ff3 a83c c2d8 b6bd
000003c0: 6979 0b3d f94b e63d 2225 c9bd 7191 0a3c
000003d0: 57c5 02bd 13a7 2ebd ca4f e43d fb7a d43d
000003e0: 6733 163d b5e5 0fbe dd43 2d3d 3fac 9fbd
000003f0: 7981 0c3e bbdb bdbd 7357 143e f25e f83d

fc.weight f4 [1, 160]
0.010029596 -0.11519459 0.059097804 0.03918361 -0.070658974 -0.026639096 0.026646018 0.09195191
0.10543288 0.009062087 -0.07937346 0.021532008 0.019900262 -0.0018656314 -0.022007903 -0.00865065
-0.026688982 -0.071718015 0.039296787 0.09910123 0.061183605 0.06039922 0.02714101 0.012348043
0.0035741841 0.10939324 -0.027858969 0.017529747 0.058201 0.019701548 0.028947668 -0.018958239
0.07868611 -0.019944455 0.019659702 0.0107139 -0.118053876 0.05577455 -0.064593166 -0.021284264
0.1052544 -0.10369203 0.039003205 0.00078343594 0.09473384 0.042807885 -0.025317967 -0.035501417
-0.091541156 -0.09554156 0.06969154 -0.1217761 -0.028625956 0.10292336 -0.03751973 -0.108326204
-0.06941503 -0.027377104 0.053356778 -0.02468528 -0.053904757 0.014365235 -0.05659173 0.026035607
0.080141105 0.01535538 -0.073581 0.10248198 -0.029146887 0.02585209 -0.046207033 0.0035681494
-0.029147672 -0.04813729 -0.015228434 0.05806826 0.05662897 0.00938589 0.008990372 -0.062115155
-0.03809375 0.058792856 -0.008836231 0.04828103 -0.06035447 0.020435471 0.03805855 0.016793353
0.02811975 -0.011419583 -0.08959697 0.060709048 0.054054867 0.094740115 -0.12818776 0.06351158
-0.015328539 -0.055488046 0.074413955 -0.025839634 -0.07142392 0.057840865 -0.100412525 0.010195616
0.09877805 0.042637307 0.082585655 0.03845654 -0.007812213 0.0375293 -0.09544732 -0.03248216
-0.03526395 -0.05490444 0.0659915 -0.020586124 0.010341461 -0.06219888 0.008169227 0.024752455
0.024854377 -0.11196509 0.09798761 0.08237009 0.0760716 0.106630065 0.09701124 -0.08309776
-0.068635814 -0.05811399 0.0034772828 -0.09610763 0.08483156 -0.08461931 -0.054995634 -0.11865061
0.025683379 0.038968403 0.0390478 -0.114098676 -0.06645121 -0.11452842 -0.071303226 0.05656709
0.10776122 0.07722919 -0.0067964057 0.04267506 0.009422014 0.0094139315 0.10633394 0.058198
-0.012115908 -0.01843728 0.022966305 0.0919218 0.109213606 0.00031750093 0.036506277 0.104516506
00000000: 2d53 243c 24eb ebbd 8a10 723d fe7e 203d
00000010: a7b5 90bd 3c3a dabc c048 da3c 4851 bc3d
00000020: 32ed d73d 2679 143c 8d8e a2bd e563 b03c
00000030: e005 a33c 3488 f4ba eb49 b4bc 75bb 0dbc
00000040: daa2 dabc e5e0 92bd abf5 203d 96f5 ca3d
00000050: a99b 7a3d 2c65 773d d356 de3c 724f 4a3c
00000060: dc3c 6a3b 9009 e03d 7e38 e4bc 8b9a 8f3c
00000070: 2c64 6e3d 2465 a13c a923 ed3c 4f4e 9bbc
00000080: 2f26 a13d 8e62 a3bc 620d a13c 5b89 2f3c
00000090: 3bc6 f1bd db73 643d 6c49 84bd 565c aebc
000000a0: 9e8f d73d 7d5c d4bd d3c1 1f3d 7f5f 4d3a
000000b0: d103 c23d 5257 2f3d a067 cfbc ef69 11bd
000000c0: ee79 bbbd 4bab c3bd 70ba 8e3d bf65 f9bd
000000d0: fb80 eabc 7cc9 d23d 4aae 19bd 21da ddbd
000000e0: 7829 8ebd f345 e0bc a38c 5a3d c938 cabc
000000f0: 3ccb 5cbd 2a5c 6b3c bbcc 67bd a048 d53c
00000100: 0521 a43d 2295 7b3c a3b1 96bd 13e2 d13d
00000110: 74c5 eebc c3c7 d33c 9643 3dbd 9dd7 693b
00000120: 19c7 eebc 9b2b 45bd ae80 79bc fcd8 6d3d
00000130: c7f3 673d 47c7 193c 5a4c 133c 766c 7ebd
00000140: 3108 1cbd c7d0 703d d7c5 10bc 54c2 453d
00000150: 4036 77bd 4a68 a73c 48e3 1b3d 3792 893c
00000160: 645b e63c 3419 3bbc 9e7e b7bd 0daa 783d
00000170: a368 5d3d 1b07 c23d a743 03be 5c12 823d
00000180: 8d24 7bbc 6f47 63bd 5866 983d a4ad d3bc
00000190: b446 92bd 8bea 6c3d 15a5 cdbd 830b 273c
000001a0: 254c ca3d 75a4 2e3d ab22 a93d 9b84 1d3d
000001b0: 98fd ffbb 53b8 193d e279 c3bd 030c 05bd
000001c0: ee70 10bd 7ae3 60bd 8d26 873d 3ba4 a8bc
000001d0: 3b6f 293c 41c4 7ebd 39d8 053c a9c5 ca3c
000001e0: 689b cb3c f44d e5bd baad c83d a6b1 a83d
000001f0: 6dcb 9b3d dd60 da3d d4ad c63d 292f aabd
00000200: ef90 8cbd ef08 6ebd 20e3 633b 14d4 c4bd
00000210: 2bbc ad3d e44c adbd 1a43 61bd 17ff f2bd
00000220: f365 d23c 559d 1f3d 96f0 1f3d 91ac e9bd
00000230: 9217 88bd e08d eabd 6d07 92bd e5b2 673d
00000240: eab1 dc3d 562a 9e3d 62b4 debb 0bcc 2e3d
00000250: ca5e 1a3c e43c 1a3c 9cc5 d93d 0761 6e3d
00000260: cd81 46bc c709 97bc d523 bc3c 7f41 bc3d
00000270: 62ab df3d 4176 a639 9b87 153d c00c d63d
