best_model.pth (torch, 672997 bytes, 6 tensors)

embedding.weight f4 [9089, 15]
0	0x3f9cc9eb	1.224912
1	0x3ebf29f0	0.37336683
2	0xbf1b028f	-0.6055078
3	0x3f2ce6d9	0.67539746
4	0xbef030a0	-0.46912098
5	0x3f90f050	1.1323338
6	0x3d314311	0.04327685
7	0xbf9a0b65	-1.2034727
8	0x3f874959	1.0569259
9	0x3f63dd10	0.8900919
10	0xbead78db	-0.33881268
11	0xbc340e28	-0.010989703
12	0xbebf0cef	-0.37314555
13	0xc029cbee	-2.6530719
14	0xbbf477e8	-0.007460583
15	0x00000000	0.0
16	0x00000000	0.0
17	0x00000000	0.0
18	0x00000000	0.0
19	0x00000000	0.0
20	0x00000000	0.0
21	0x00000000	0.0
22	0x00000000	0.0
23	0x00000000	0.0
24	0x00000000	0.0
25	0x00000000	0.0
26	0x00000000	0.0
27	0x00000000	0.0
28	0x00000000	0.0
29	0x00000000	0.0
30	0x3f01764a	0.5057112
31	0xbf76eb2f	-0.9645261
32	0x3fd4f9a9	1.663869
33	0xbfb12fe0	-1.3842735
34	0x3f90176e	1.125715
35	0xbf07ccae	-0.5304669
36	0x3f99c8c0	1.2014389
37	0x3ef43e13	0.4770361
38	0x3fb23559	1.392253
39	0x3eae0e2c	0.33995187
40	0xbe35f65f	-0.17769764
41	0x3f308fb5	0.6896928
42	0x3e64b1b3	0.22333412
43	0x3f7cd6ef	0.9876546
44	0xbfd73c34	-1.6815248
45	0x3fe40191	1.7812978
46	0xbf38eb3d	-0.72233945
47	0x3ea2c3d3	0.31790027
48	0x3f610fbc	0.87914634
49	0xbe9cec06	-0.30648822
50	0x3fbabc39	1.4588691
51	0xbf6c3751	-0.92271906
52	0x3f07d60f	0.53061
53	0x3ed05208	0.40687585
54	0x3d7c48ab	0.06159274
55	0x3f7f8cd8	0.99824286
56	0xbefe10d1	-0.49622205
57	0x3f954b8d	1.1663681
58	0x3ef95926	0.48700827
59	0x3fb700dc	1.4297137
60	0x3f9f18d3	1.2429451
61	0x3e6d7975	0.23190863
62	0x3f42adc2	0.76046383
63	0x3f1c619e	0.6108645
64	0xbf8e9c3c	-1.1141429
65	0x3d7e105d	0.062027324
66	0xc034f244	-2.8272867
67	0x3df6caed	0.12050424
68	0x3f0a114b	0.53932637
69	0xc013405c	-2.3008032
70	0xbe909f01	-0.2824631
71	0x3f8d6f49	1.1049587
72	0x40018748	2.023882
73	0xbde9192e	-0.11381756
74	0xbe03887c	-0.12845033
75	0xbe5971e9	-0.2123486
76	0x3f4718bb	0.7777211
77	0x3e75adf0	0.23992133
78	0xbf3e667d	-0.74375135
79	0x3ec773cc	0.38955534
80	0xbfa6ba28	-1.302556
81	0xc00cef56	-2.202108
82	0xbc599c2e	-0.013281865
83	0xbf3d236e	-0.73882186
84	0x3e1e8452	0.15480164
85	0x3e67da59	0.22641887
86	0x3db162fd	0.08661459
87	0xbf5dce8e	-0.866433
88	0xc013ac1d	-2.30738
89	0xbf547ee0	-0.83006096
90	0x3e675aae	0.22593185
91	0xbded0256	-0.11572711
92	0xbecd7dc6	-0.4013502
93	0xc02651fa	-2.5987535
94	0x3f4d345b	0.80158013
95	0x3fcb3e12	1.5878317
96	0xbf8905dc	-1.0704913
97	0xbcc9be55	-0.02462689
98	0x3e4757dd	0.19467111
99	0x4057731f	3.3664014
100	0xbf180500	-0.5938263
101	0xbf876581	-1.0577852
102	0xbf832137	-1.0244511
103	0x3fb13f2d	1.3847405
104	0xbfb1572a	-1.3854725
105	0x3f073e24	0.52829194
106	0xbece02d7	-0.40236542
107	0x3f7da1cf	0.99075025
108	0x3ea52e0d	0.32261696
109	0x3f0f6f20	0.5602894
110	0x3f2e77c1	0.6815148
111	0xbf9b0757	-1.2111615
112	0x3ec47a8b	0.38374743
113	0x3f390f92	0.72289383
114	0xbf55ecd0	-0.8356447
115	0x3e8443c2	0.25832945
116	0xbc9a0ad3	-0.01880399
117	0xbfd786c6	-1.6838005
118	0xbed3eda3	-0.4139224
119	0xbf58c1fb	-0.8467099
120	0xbf90435c	-1.1270556
121	0xbf0c667b	-0.5484387
122	0xbf0b6243	-0.5444681
123	0xbf94b89f	-1.1618842
124	0x3f357723	0.70884913
125	0xbf460f0e	-0.7736672
126	0xbfeed749	-1.865945
127	0x3ee8a160	0.4543562
128	0xbd745af1	-0.05965704
129	0xbf741885	-0.95349914
130	0xbbe30edc	-0.0069292616
131	0xbe674090	-0.22583222
132	0x3f0256fc	0.5091398
133	0x3d916391	0.07099069
134	0x3e572fbc	0.21014303
135	0x3f3e2887	0.7428059
136	0x3fb054f8	1.377593
137	0x3f45131c	0.76982284
138	0x3fcb5b62	1.5887263
139	0x3e80b7b7	0.25140163
140	0x3f124087	0.5712971
141	0x3f3702da	0.71488726
142	0x3f59e68b	0.85117406
143	0xbf4b6c2e	-0.79461944
144	0xbf630a95	-0.8868802
145	0x3ef8b43c	0.48575008
146	0xbe03a328	-0.12855208
147	0x3eca6162	0.39527422
148	0xbf9832d5	-1.1890513
149	0x3f50d00d	0.8156746
150	0xbe752a75	-0.23941977
151	0x3dfefef4	0.12450972
152	0xbe44441d	-0.19166608
153	0xbf021ceb	-0.50825375
154	0x3f95f721	1.1716043
155	0x3e1fa606	0.15590677
156	0xbfbf7f12	-1.4960654
157	0x3ee6a987	0.45051214
158	0x3fe426f0	1.7824383
159	0x3dcefa2e	0.10106312
160	0x3f84bd68	1.0370302
161	0xbdd69e6c	-0.10479435
162	0xc01e5bee	-2.474361
163	0x3e8df2d4	0.27724326
164	0xbfd8d39b	-1.6939577
165	0x40194f92	2.3954816
166	0xbef565e5	-0.47929302
167	0x3f8906ad	1.0705162
168	0xbebaf013	-0.36511287
169	0xbf34adfc	-0.7057798
170	0x3fe554e5	1.7916533
171	0xbd85c6ab	-0.065320335
172	0xbd83d98a	-0.06437977
173	0xbdefa719	-0.11701793
174	0x3df75577	0.12076848
175	0x3dfefd07	0.12450605
176	0x3eaaf152	0.33387238
177	0x3ec9f4fd	0.39444724
178	0xbebef6f1	-0.37297776
179	0x3f3bf00f	0.73413175
180	0x3fbe664b	1.4874967
181	0xbf933b4b	-1.150247
182	0xbcb886b2	-0.022525165
183	0x3d7c01eb	0.061525267
184	0x3e8336ba	0.2562769
185	0xc02bdabb	-2.6852252
186	0x3f04487b	0.51673096
187	0x3ffe4f16	1.9867885
188	0xbf431e80	-0.76218414
189	0xbe22feeb	-0.15917556
190	0xbf3f9bc3	-0.7484705
191	0x3fc6b259	1.5523177
192	0xbef77066	-0.4832794
193	0xbe64261e	-0.22280166
194	0xbdf9a4ef	-0.12189662
195	0xbfa8b3fb	-1.3179926
196	0x3e05b470	0.13057113
197	0x3f950f6f	1.1645335
198	0x3f86c03b	1.0527414
199	0x3fa48cd1	1.2855474
200	0x3deb63a4	0.11493614
201	0xbed6b505	-0.41934982
202	0xbf1718fa	-0.59022486
203	0x40186310	2.3810463
204	0xbf4ec600	-0.80770874
205	0x3f4e91cd	0.80691224
206	0xbfd94742	-1.6974871
207	0xbe8e6aed	-0.27815953
208	0xbf973055	-1.1811625
209	0xc004c7c2	-2.0746922
210	0x3fbea667	1.4894532
211	0xbfaafda1	-1.3358651
212	0x3f1183fd	0.56842023
213	0x3f7156dc	0.9427316
214	0x3eb21e6d	0.34788838
215	0x3dd00c78	0.10158628
216	0x3db0c6d4	0.086316735
217	0x3fb3f949	1.4060451
218	0x3f867393	1.050402
219	0xbf957cf0	-1.1678753
220	0xbe924464	-0.28567803
221	0xbef10495	-0.47073808
222	0x3edca86f	0.43097255
223	0xbcae8e23	-0.02130801
224	0x3f815901	1.0105287
225	0xbf8b77cf	-1.0895938
226	0x3e93d24b	0.28871378
227	0xc002db62	-2.04464
228	0xbfb4739f	-1.4097785
229	0xbf282da6	-0.65694654
230	0x3f858dbe	1.0433881
231	0xbec593c8	-0.3858931
232	0x3ef4449f	0.47708604
233	0xbec3a426	-0.38211173
234	0xbe22b887	-0.15890704
235	0x3d9f6e7a	0.077847436
236	0x3dfb6103	0.12274363
237	0x3f402118	0.750505
238	0x3f590f79	0.84789234
239	0xbfc5ea89	-1.54622
240	0xc02a84b6	-2.66435
241	0x3f769f01	0.9633637
242	0x3ea0f0ae	0.31433624
243	0xbd8cbc88	-0.06871897
244	0xc01745d7	-2.3636377
245	0x3e3b9aaa	0.18320718
246	0xbeba9fc9	-0.3645003
247	0xbf448cb2	-0.76777184
248	0x3fed2a7e	1.8528593
249	0xbffee39e	-1.9913213
250	0xbf151cf1	-0.58247286
251	0x3d3509a2	0.04419864
252	0x3fc09b68	1.5047426
253	0xbf4e3bf4	-0.8056023
254	0x3dee1958	0.11625928
255	0xbf056d37	-0.52119774

lstm.weight_ih_l0 f4 [320, 15]
0	0x3e445b05	0.19175346
1	0xbcc6d608	-0.02427198
2	0xbd8bb40b	-0.0682145
3	0x3f1b241c	0.60601974
4	0xbe92fe56	-0.28709668
5	0x3eaba630	0.33525229
6	0xbe4a3cc3	-0.19749741
7	0xbc2a7d0e	-0.010405792
8	0x3e0aee82	0.13567546
9	0x3e13849e	0.14406058
10	0x3e8dc34b	0.2768806
11	0x3da91b76	0.08257191
12	0x3cc30b8a	0.023809213
13	0xbddd7bf7	-0.1081466
14	0xbea3aa52	-0.31965882
15	0xbe994150	-0.29932642
16	0x3b821046	0.003969225
17	0x3d927f03	0.07153132
18	0xbe3c8b30	-0.18412471
19	0xbd0a2b59	-0.033732746
20	0x3e13b02d	0.14422674
21	0x3db39193	0.087680005
22	0x3dce0252	0.10059036
23	0x3d2e2b57	0.0425218
24	0xbf3ac306	-0.7295383
25	0xbf03b2f4	-0.51444936
26	0xbecbe59f	-0.39823624
27	0x3e6788e2	0.2261081
28	0xbf57c546	-0.8428539
29	0xbf3e7401	-0.7439576
30	0xbce98d12	-0.02850965
31	0x3dfe9082	0.124299064
32	0xbeb1a1f8	-0.34693885
33	0x3e9136ae	0.2836203
34	0x3e18a964	0.14908367
35	0xbe917f76	-0.28417557
36	0x3deee42c	0.11664614
37	0xbe2dc83f	-0.16970919
38	0x3ecd5b70	0.40108824
39	0xbda6233e	-0.08112191
40	0x3e8f1be1	0.27950957
41	0x3efbd918	0.49189067
42	0x3ef39e26	0.47581595
43	0x3ece9cd4	0.40354025
44	0x3f502f55	0.8132222
45	0x3e20d48e	0.15706083
46	0xbeb0ba37	-0.3451707
47	0xbe880b8c	-0.2657131
48	0xbe676558	-0.22597253
49	0xbee8ff86	-0.4550745
50	0xbcc20fa4	-0.023689099
51	0xbe83cb08	-0.25740838
52	0xbe44ecbf	-0.19230936
53	0xbea979cf	-0.33100745
54	0x3e8f9b9b	0.28048405
55	0xbd1f7d0f	-0.038937625
56	0x3e387296	0.18012461
57	0xbe2a3ca9	-0.16624703
58	0x3eb4d81c	0.35321128
59	0x3e336ae7	0.17521249
60	0x3ee302ae	0.44337982
61	0xbd8c9157	-0.06863659
62	0xbe5eef11	-0.21770884
63	0x3e51a742	0.2047396
64	0xbda6e24e	-0.08148633
65	0xbe3a4c44	-0.18193156
66	0x3c6144b2	0.013749288
67	0xbde5fa56	-0.112293884
68	0xbe97f314	-0.2967764
69	0x3e9c07df	0.30474755
70	0xbe57081d	-0.20999189
71	0xbf077f7b	-0.52928895
72	0xbdf68389	-0.12036807
73	0x3e887ed4	0.26659262
74	0xbe8630ba	-0.2620905
75	0x3ec4f87e	0.38470834
76	0xbe40a093	-0.18811254
77	0x3e9c8aa2	0.30574518
78	0x3e345b44	0.1761294
79	0x3eb8f51d	0.36124507
80	0x3ed4c9cd	0.41560212
81	0x3dbe638e	0.09296332
82	0xbdb967bb	-0.09052988
83	0x3e52872b	0.20559375
84	0xbdfa0836	-0.12208597
85	0xbe4f6970	-0.20255065
86	0xbf086a82	-0.5328752
87	0x3d3f0368	0.046634108
88	0xbd22736c	-0.039660856
89	0xbf162e58	-0.58664465
90	0x3e74c9d1	0.23905112
91	0xbe5c4f76	-0.21514687
92	0x3baa7817	0.005202304
93	0xbef8d544	-0.4860021
94	0xbda95287	-0.08267694
95	0x3f0eb7c8	0.5574918
96	0xbec7c7bf	-0.39019582
97	0x3effb0a8	0.49939466
98	0xbef009de	-0.46882528
99	0x3ec12d7a	0.37730008
100	0x3ef9cbaf	0.4878821
101	0x3e9e07e3	0.30865392
102	0x3e7dec79	0.24797238
103	0x3e888f2b	0.26671728
104	0x3f0865f1	0.5328055
105	0xbe9cfa5c	-0.3065976
106	0xbea420a8	-0.32056165
107	0x3edb46cc	0.4282745
108	0x3eab039c	0.3340119
109	0x3e49242a	0.19642702
110	0xbe4a60a3	-0.19763426
111	0x3da772d5	0.08176199
112	0x3f2cae71	0.67453676
113	0x3eaeff6d	0.3417925
114	0xbf22e7e6	-0.636351
115	0x3aec1398	0.001801121
116	0xbead9d44	-0.33909047
117	0xbf0afccd	-0.54291993
118	0xbe450287	-0.19239245
119	0xbea00f4f	-0.3126168
120	0xbebb540a	-0.36587554
121	0x3d671b3d	0.05642246
122	0xbf04b7dd	-0.51843053
123	0x3ee01a19	0.4376991
124	0xbee0dfdb	-0.43920788
125	0xbd9e5281	-0.0773058
126	0xbe899012	-0.2686773
127	0xbc5f48b0	-0.01362817
128	0x3ec913a1	0.39272788
129	0x3e9a1eee	0.30101722
130	0x3e192b40	0.14957905
131	0xbec763dd	-0.38943377
132	0x3e2f0542	0.1709185
133	0xbe636551	-0.22206618
134	0xbf32493e	-0.6964301
135	0xbe8810ec	-0.2657541
136	0xbe260c49	-0.16215624
137	0x3e113707	0.14181148
138	0x3f081cb0	0.53168774
139	0x3e808eb9	0.2510889
140	0xbeb3465a	-0.3501461
141	0x3f120d72	0.57051766
142	0x3eea58df	0.45770928
143	0x3f1867f4	0.5953362
144	0xbe9ba100	-0.3039627
145	0xbb618ae4	-0.003441506
146	0xbf2998d0	-0.662488
147	0xbef09708	-0.46990228
148	0xbf4c8c8d	-0.79901963
149	0xbe774c44	-0.24150187
150	0x3d8e6003	0.069519065
151	0xbea67f90	-0.32519197
152	0xbf2a8b28	-0.66618586
153	0xbea5e7f3	-0.32403526
154	0xbd1f58cc	-0.038903043
155	0xbe2bd1d6	-0.16779265
156	0x3c4192e8	0.01181481
157	0xbe129dc3	-0.14317994
158	0xbed5133d	-0.4161624
159	0xbe4af77f	-0.19820975
160	0xbd87ba42	-0.06627323
161	0xbf0695c1	-0.52572256
162	0x3ea78522	0.3271876
163	0x3e80f973	0.25190315
164	0x3de6353e	0.11240624
165	0x3f01f899	0.50769955
166	0xbee5cea5	-0.4488422
167	0xbe4269ed	-0.1898572
168	0xbee2f419	-0.44326857
169	0xbf2c03ed	-0.6719349
170	0x3e6054ca	0.21907344
171	0xbe01e179	-0.12683667
172	0xbeaf7b74	-0.34273875
173	0xbf029a25	-0.51016456
174	0xbc712486	-0.0147181805
175	0xbebe1713	-0.3712698
176	0xbe2a8a33	-0.16654281
177	0x3f055bb5	0.5209306
178	0x3e796399	0.243544
179	0x3e2d4890	0.16922212
180	0x3f073e12	0.52829087
181	0xbed03f2d	-0.406732
182	0xbeffcf97	-0.49963066
183	0xbf1ab615	-0.60434085
184	0xbde1c756	-0.110243484
185	0xbe698af6	-0.22806916
186	0x3ee99bfd	0.45626822
187	0x3e42639c	0.1898331
188	0xbeb7557e	-0.35807413
189	0x3ca52f91	0.020164283
190	0xbf2ba99c	-0.6705568
191	0xbecbafb0	-0.39782476
192	0xbddef5a5	-0.10886697
193	0x3e2dbc44	0.16966349
194	0xbe99aa2a	-0.30012637
195	0xbf066dc1	-0.5251122
196	0x3ed6d5f1	0.419601
197	0x3c90f811	0.017696412
198	0x3ec8a3a2	0.39187342
199	0x3e66aa24	0.22525841
200	0xbec2ea92	-0.38069588
201	0x3de5f988	0.11229235
202	0x3ec0cce9	0.37656334
203	0x3f021635	0.50815135
204	0x3e5bdb5b	0.21470396
205	0xbeb3efef	-0.35143992
206	0xbea12229	-0.31471375
207	0xbec8d854	-0.39227545
208	0xbf2967ad	-0.6617382
209	0xbeeb9ce4	-0.46018136
210	0xbeac9175	-0.33704725
211	0xbde0adcf	-0.10970651
212	0xbf30cf02	-0.6906587
213	0xbea77e8e	-0.3271374
214	0xbecd11ce	-0.40052646
215	0x3ee05670	0.43815947
216	0xbe0c44cd	-0.1369812
217	0xbe6bd2e3	-0.23029666
218	0x3eacd3d0	0.3375535
219	0x3de691d4	0.11258283
220	0x3d478669	0.048712168
221	0xbf115729	-0.5677362
222	0xbe275a4b	-0.16343038
223	0x3f04d42b	0.5188624
224	0xbdba460c	-0.09095392
225	0x3ef18405	0.47171035
226	0xbe4f849e	-0.20265433
227	0x3ea75b4b	0.32686839
228	0xbe814d61	-0.25254348
229	0x3edde4f3	0.43338737
230	0xbeced45f	-0.403964
231	0xbe733461	-0.2375045
232	0x3f0f680e	0.5601815
233	0x3dbb48b2	0.09144725
234	0x3ece21cc	0.4026016
235	0x3ecc44eb	0.3989633
236	0x3e6cf2fe	0.23139569
237	0xbeef0dd2	-0.46690232
238	0x3daf3fee	0.085571155
239	0x3e697073	0.22796802
240	0x3dbdc706	0.09266476
241	0x3ec6fbe4	0.38864052
242	0xbf26b6a6	-0.6512245
243	0x3eb3bda6	0.35105628
244	0xbed088ae	-0.40729278
245	0x3e36ebe2	0.1786342
246	0x3ebb1b1e	0.36544126
247	0xbd61b7e1	-0.055107
248	0xbc161e32	-0.009162473
249	0x3efccc77	0.49374744
250	0xbebb593d	-0.3659152
251	0xbea16772	-0.31524235
252	0x3f2bdf21	0.6713734
253	0x3e8c6210	0.27418566
254	0xbd908ad9	-0.07057733
255	0xbe222904	-0.15835959

lstm.weight_hh_l0 f4 [320, 80]
0	0xbd53552a	-0.05159489
1	0x3e78dd7c	0.2430324
2	0xbb1fe435	-0.0024397497
3	0xbf0fac87	-0.5612263
4	0xbe795b80	-0.2435131
5	0xbf0f074a	-0.558705
6	0xbe39ef51	-0.18157698
7	0x3ec8c1c7	0.3921034
8	0x3f0860c6	0.53272665
9	0xbdf21841	-0.11821032
10	0xbce79fc3	-0.028274423
11	0x3ea24708	0.31694818
12	0xbd9b4508	-0.07581526
13	0xbe370cd3	-0.17875986
14	0x3e2fcdca	0.17168346
15	0x3dcd593a	0.10026784
16	0x3eff3b1d	0.49849787
17	0xbe7b66c5	-0.24550922
18	0xbe896e26	-0.2684185
19	0x3eb976a1	0.3622332
20	0x3dbd95a6	0.09257059
21	0xbeedef1f	-0.46471497
22	0x3d96d774	0.07365313
23	0xbdb656f1	-0.089033015
24	0x3e0ffa6f	0.14060377
25	0x3ef5c9d4	0.48005545
26	0x3d47c240	0.048769236
27	0xbe7adb66	-0.24497756
28	0xbf01d352	-0.50713074
29	0xbe4983c7	-0.19679175
30	0xbcf12bc9	-0.029439824
31	0xbe2e03d2	-0.16993645
32	0xbe998ee5	-0.29991832
33	0x3ece65f8	0.4031217
34	0xbac135b6	-0.0014740739
35	0x3ea98071	0.33105806
36	0x3e6d7c08	0.23191845
37	0x3e7b51d7	0.24542938
38	0x3da15c23	0.07878902
39	0x3dc7da25	0.09758405
40	0xbe262121	-0.16223575
41	0x3d64cdaf	0.055860218
42	0x3df7c808	0.120987
43	0xbd3881db	-0.045045715
44	0x3e1d7218	0.15375555
45	0xbe508a7c	-0.20365328
46	0xbeb2dfa3	-0.34936246
47	0x3f3b78ec	0.7323139
48	0xbee9a722	-0.45635325
49	0xbe7365c5	-0.23769291
50	0x3ec449a1	0.38337424
51	0xbd9a1122	-0.07522799
52	0x3e4e007f	0.20117377
53	0x3e499f9e	0.19689795
54	0xbe6e8d38	-0.23296058
55	0x3da688bb	0.08131548
56	0x3d8ec3d0	0.06970942
57	0xbe271136	-0.16315159
58	0xbea20a5d	-0.31648532
59	0xbeeb497f	-0.4595451
60	0x3e858dcb	0.26084742
61	0xbeb74fdb	-0.35803112
62	0xbe879178	-0.2647817
63	0x3e89f9a0	0.2694826
64	0x3ef89a9e	0.48555464
65	0x3ebb87a3	0.3662692
66	0x3e8326d6	0.25615567
67	0xbed3e501	-0.41385654
68	0xbe282918	-0.16421926
69	0x3dc2d914	0.095140606
70	0x3dcd4a02	0.100238815
71	0x3e692f7b	0.22772019
72	0x3e93bd52	0.28855377
73	0xbefde19c	-0.4958619
74	0xbeecc6bb	-0.4624537
75	0x3f0f06b3	0.558696
76	0x3eca0ba4	0.39462006
77	0x3eb05286	0.3443796
78	0xbed5eb51	-0.41781095
79	0x3e4a105b	0.19732802
80	0xbe0538d4	-0.1300996
81	0x3e3400ec	0.17578477
82	0xbed66b2e	-0.41878647
83	0xbeb37592	-0.35050637
84	0xbea4e616	-0.32206792
85	0xbef2fcc7	-0.4745848
86	0x3d9e0768	0.077162564
87	0x3ea0147d	0.3126563
88	0x3e9bdde8	0.3044274
89	0xbe9651bb	-0.2935923
90	0x3e159ab5	0.14609797
91	0x3e353aaf	0.17698167
92	0x3c4e7bb0	0.012602732
93	0xbe3465e0	-0.17616987
94	0x3e86db1f	0.2633905
95	0xbe7788f9	-0.24173345
96	0x3edc6ce1	0.43051818
97	0xbead8810	-0.3389287
98	0xbdb46b32	-0.088095084
99	0x3df6a470	0.12043083
100	0x3da28fb4	0.079375654
101	0xbf0b2a2b	-0.5436122
102	0x3e86b6bf	0.263113
103	0xbd37c8fd	-0.04486941
104	0x3e1ea9eb	0.15494506
105	0x3ee102b5	0.43947378
106	0x3de01980	0.10942364
107	0xbee2f95f	-0.4433088
108	0xbf257845	-0.6463664
109	0x3c94968c	0.018138193
110	0x3e14f59e	0.1454682
111	0x3dd27374	0.10275927
112	0xbf25e74c	-0.64806056
113	0x3ed25eeb	0.41088042
114	0x3eab11b6	0.3341195
115	0x3eafb713	0.34319362
116	0x3e3240ee	0.17407581
117	0x3ee7f6d3	0.453055
118	0x3e5bbb18	0.2145809
119	0x3e5de568	0.21669543
120	0x3ccadc37	0.02476321
121	0x3e116db6	0.14202008
122	0xbd651bee	-0.05593484
123	0x3e022f16	0.12713274
124	0xbd3e2b58	-0.046428055
125	0x3e030703	0.12795644
126	0xbea941d3	-0.33058032
127	0x3f299227	0.66238636
128	0xbe98b981	-0.29829028
129	0xbe66abb8	-0.22526443
130	0x3eb2906d	0.34875813
131	0x3e952fc4	0.29138005
132	0x3e32c690	0.17458558
133	0xbd6ae622	-0.057348378
134	0xbed12566	-0.40848845
135	0x3e1b27e9	0.15151943
136	0xbc89a0b5	-0.016800264
137	0x3cf00402	0.029298786
138	0xbd1842a8	-0.037172943
139	0xbf228e5d	-0.6349848
140	0x3e86ea30	0.26350546
141	0xbea445ab	-0.32084402
142	0xbc916048	-0.017746106
143	0x3de3b8d5	0.11119238
144	0x3ecad998	0.39619136
145	0x3d5002a4	0.05078377
146	0x3e6e5886	0.23275957
147	0xbe60908e	-0.21930143
148	0xbe593422	-0.21211293
149	0x3e6d365f	0.23165272
150	0x3e9396df	0.28826043
151	0xbd98df6f	-0.074644916
152	0xbdcd6bef	-0.10030352
153	0xbed8bddf	-0.4233236
154	0xbec4320d	-0.38319436
155	0x3f032811	0.5123301
156	0x3f09d074	0.538337
157	0x3dd36e0e	0.10323726
158	0xbef950f1	-0.48694566
159	0x3ea87642	0.32902724
160	0x3edfed7e	0.4373588
161	0xbdaf02fe	-0.085454926
162	0xbda881e9	-0.082279034
163	0x3db3ba6a	0.0877579
164	0xbd9da883	-0.07698157
165	0xbe752ecd	-0.23943634
166	0xbeb9989b	-0.3624924
167	0xbdd97aca	-0.10619123
168	0xbe5dcc79	-0.21660031
169	0x3e97a3fe	0.29617304
170	0xbec850e6	-0.3912422
171	0x3f0d630c	0.5522926
172	0xbd91a7d6	-0.0711209
173	0x3e3a514f	0.1819508
174	0x3f20cd3b	0.62813157
175	0x3dd738a3	0.105088495
176	0xbe5166a0	-0.20449305
177	0x3e2b7887	0.16745196
178	0xbef8b4a3	-0.48575315
179	0x3e9d0162	0.30665118
180	0xbe5e8dad	-0.21733733
181	0xbe963eb9	-0.2934473
182	0x3da8d5a8	0.08243877
183	0x3eba2944	0.36359608
184	0xbe77d937	-0.24203955
185	0x3e17499a	0.1477417
186	0xbe86cb0a	-0.26326782
187	0xbd29a2b4	-0.04141493
188	0xbe87d083	-0.2652627
189	0x3f17e8f2	0.5933982
190	0xbe5ac948	-0.21365845
191	0xbe6e2e97	-0.2325996
192	0xbd1c833c	-0.038211092
193	0xbec39d3b	-0.38205895
194	0xbe853a23	-0.26020917
195	0x3e0d5fcb	0.13806073
196	0xbe2eaec3	-0.17058854
197	0x3de52169	0.11188013
198	0xbe9dc7a0	-0.30816364
199	0x3e6fc7cc	0.2341606
200	0xbeecfa76	-0.46284837
201	0xbe5cae6d	-0.21550913
202	0x3d997e3c	0.074947804
203	0xbecb7287	-0.39735815
204	0x3ee84c28	0.45370603
205	0xbedbfd04	-0.42966473
206	0x3c49b521	0.012311251
207	0x3efbfc51	0.4921594
208	0x3dad30fc	0.08456609
209	0xbebbf257	-0.36708328
210	0xbe90409f	-0.28174302
211	0xbe3b7540	-0.18306446
212	0xbe711731	-0.23544003
213	0x3eae1fda	0.34008676
214	0x3c3b8f43	0.0114477305
215	0xbec4a997	-0.38410637
216	0x3ed3c062	0.41357714
217	0xbedd2cd1	-0.43198255
218	0xbead1f6d	-0.33813038
219	0xbd030b5d	-0.03199326
220	0xbe9e9a40	-0.30977058
221	0x3e194cc3	0.14970689
222	0xbf398a21	-0.72476393
223	0x3ed3b2d9	0.41347387
224	0x3ddeb6a3	0.10874679
225	0x3f26b7de	0.6512431
226	0x3d8480eb	0.06469902
227	0x3e71b462	0.23603967
228	0x3daed193	0.08536067
229	0xbdc8bce3	-0.09801652
230	0xbe187855	-0.14889653
231	0x3eab1004	0.33410656
232	0x3e9a44b7	0.3013055
233	0xbeae39c9	-0.34028462
234	0x3e158ed7	0.1460527
235	0x3d823264	0.063572675
236	0xbe3a5790	-0.18197465
237	0xbd6351d8	-0.055497974
238	0xbe3d7bbe	-0.18504235
239	0x3d9fde0e	0.078060254
240	0x3e5abdc3	0.21361451
241	0xbb6f785e	-0.003654025
242	0x3dc7618c	0.097354025
243	0x3d8ad746	0.067793414
244	0x3f06b150	0.5261431
245	0x3dc7ff66	0.0976551
246	0xbeb738b5	-0.35785452
247	0xbe58d933	-0.21176605
248	0x3d715418	0.05891809
249	0x3ea6f2f3	0.3260723
250	0xbeeaa3b1	-0.45828012
251	0x3efebcbf	0.49753377
252	0xbe8c98ae	-0.27460235
253	0x3e8a1f0e	0.26976818
254	0x3ec1833c	0.37795436
255	0x3e91cb86	0.2847559

lstm.bias_ih_l0 f4 [320]
0	0xbf10576b	-0.5638339
1	0xbec3d2dd	-0.38246813
2	0xbea7695e	-0.32697576
3	0xbd9bdbd5	-0.07610289
4	0xbe84106d	-0.25793782
5	0xbdba97b4	-0.09110966
6	0x3ea3078e	0.318417
7	0xbf140e31	-0.57834154
8	0xbe79892f	-0.24368738
9	0xbf14e5ce	-0.58163154
10	0xbe259151	-0.16168715
11	0x3ed343d4	0.41262686
12	0xbe95bd7c	-0.29246128
13	0xbf11ffb1	-0.5703078
14	0x3e5923ac	0.21205014
15	0xbe5fb0c5	-0.21844776
16	0x3e6e1832	0.23251417
17	0xbed2a20b	-0.41139254
18	0x3e20e0e5	0.1571079
19	0x3edf464b	0.43608317
20	0xbf0e76c9	-0.5565
21	0xbe0b7875	-0.1362017
22	0xbe0e8f63	-0.13921885
23	0xbe07959b	-0.13240664
24	0xbf299f00	-0.6625824
25	0x3d8eb9da	0.06969042
26	0xbf023414	-0.50860715
27	0xbe199d82	-0.1500149
28	0x3d1e3293	0.03862245
29	0xbe3c2ef3	-0.18377285
30	0xbe750b2d	-0.23930044
31	0xbf256e42	-0.64621365
32	0xbe3566e8	-0.17715037
33	0xbf0cdecb	-0.55027455
34	0xbeed68eb	-0.4636911
35	0xbe8f4d56	-0.2798869
36	0xbee3fc5b	-0.4452847
37	0xbbf9db12	-0.007624992
38	0xbf244413	-0.64166373
39	0xbec005e3	-0.3750449
40	0xbe13710d	-0.14398594
41	0xbe49aa42	-0.19693854
42	0xbebf2a68	-0.3733704
43	0x3c8bce31	0.017066093
44	0x3e0132ab	0.12616985
45	0xbdc93ea5	-0.098264016
46	0xbeb08b32	-0.34481198
47	0x3de26ccc	0.110559076
48	0x3e51c159	0.20483913
49	0xbe89b7a1	-0.2689791
50	0xbf0d4bc1	-0.55193716
51	0xbe824c26	-0.25448722
52	0xbec9f373	-0.3944355
53	0xbec26564	-0.3796798
54	0xbe0f5e56	-0.1400083
55	0xbeb5878e	-0.35454983
56	0xbe5a6aef	-0.21329854
57	0x3cf914c4	0.03040541
58	0xbe83b7dd	-0.25726214
59	0xbe54477f	-0.20730399
60	0xbf01a6c4	-0.5064509
61	0xbe516190	-0.20447373
62	0x3d6a8caf	0.057263073
63	0xbe9068a0	-0.28204823
64	0xbe4955b7	-0.19661604
65	0xbe4d23fa	-0.20033255
66	0xbe516854	-0.20449954
67	0xbe34dd16	-0.17662463
68	0xbed8e521	-0.4236231
69	0xbeffc3e4	-0.4995414
70	0xbf02823e	-0.50979984
71	0xbf16ae08	-0.588593
72	0xbdc39700	-0.09550285
73	0xbe02eeda	-0.12786427
74	0xbf0a7f25	-0.5410026
75	0xbc578319	-0.013153815
76	0xbe7d8876	-0.24759087
77	0xbea7bfc0	-0.3276348
78	0xbdb453d4	-0.088050514
79	0xbeaa7ba5	-0.33297458
80	0xbebea59e	-0.3723573
81	0xbeacc749	-0.33745793
82	0xbe5d6afd	-0.21622844
83	0x3d47f7ac	0.048820183
84	0xbe5ea2f7	-0.21741854
85	0x3cae03c2	0.021242026
86	0x3e001aa2	0.1251016
87	0xbe45f321	-0.19331028
88	0xbe2443fd	-0.1604156
89	0xbed30574	-0.41215098
90	0xbd6e66ad	-0.058203388
91	0x3ef37096	0.47546834
92	0xbd2cc591	-0.0421806
93	0xbe2b5de2	-0.16735032
94	0x3e72a74c	0.23696631
95	0xbe9c21e8	-0.30494618
96	0x3e0d93f2	0.13825968
97	0xbea0d3f9	-0.31411722
98	0xbdbfa113	-0.09356894
99	0x3e8a3d20	0.2699976
100	0xbea03fee	-0.31298774
101	0xbdfbdb21	-0.12297655
102	0xbda9a4be	-0.08283375
103	0xbe81ee90	-0.2537732
104	0xbe6e629d	-0.23279805
105	0x3e73b9b2	0.23801306
106	0xbe659171	-0.22418763
107	0xbe273305	-0.16328056
108	0x3d93bcf9	0.07213778
109	0xbe8bfbdf	-0.273406
110	0xbe8ab2c8	-0.27089524
111	0xbe9672e6	-0.29384536
112	0x3d85abea	0.06526931
113	0xbeef6493	-0.4675642
114	0xbe948f23	-0.29015455
115	0x3cef7855	0.029232183
116	0xbe6933cf	-0.2277367
117	0xbe0f7046	-0.14007673
118	0xbeec7e24	-0.46189988
119	0xbed4a2f6	-0.4153058
120	0xbd81d455	-0.06339327
121	0xbe4705f7	-0.19435869
122	0x3cf92304	0.030412205
123	0xbdd21454	-0.102577835
124	0x3d9639dd	0.07335255
125	0x3d4a29cf	0.049356278
126	0xbe9a9c89	-0.30197552
127	0x3dd4b3e1	0.10385872
128	0x3e4f16a7	0.20223485
129	0xbe8e4dce	-0.27793735
130	0xbf3db4a2	-0.7410375
131	0xbe6fdfe8	-0.23425257
132	0xbe55bc87	-0.20872699
133	0xbef18ea1	-0.4717913
134	0xbdcb3c2f	-0.099235885
135	0xbe29932b	-0.16560046
136	0xbd1f6c73	-0.038921785
137	0x3cbe3298	0.023217484
138	0xbc90dce4	-0.017683454
139	0xbed6b49b	-0.41934666
140	0xbe9291d1	-0.28626874
141	0xbd8939d3	-0.06700482
142	0xbde1c8b6	-0.11024611
143	0xbec24079	-0.37939814
144	0x3d481567	0.048848536
145	0x3e36d0f7	0.17853151
146	0x3d9758ea	0.07390006
147	0xbe56756b	-0.20943229
148	0xbe9ef480	-0.31045914
149	0xbf10c44e	-0.5654954
150	0xbe2e8ad7	-0.1704515
151	0xbe7bc459	-0.2458662
152	0xbe542e98	-0.20720899
153	0xbcc7e170	-0.02439949
154	0xbe3b227a	-0.1827487
155	0x3e6fa7c3	0.2340384
156	0xbe1b3b73	-0.15159397
157	0xbe44f8db	-0.19235556
158	0x3c1e7523	0.009671482
159	0xbe859281	-0.26088336
160	0xbc8b89f7	-0.01703356
161	0x3de1827b	0.11011215
162	0x3dae3bab	0.085074745
163	0x3d723182	0.059129246
164	0xbd909e28	-0.07061416
165	0x3ea462f2	0.3210674
166	0x3f062871	0.5240546
167	0x3eb3b713	0.35100612
168	0xbec7fc25	-0.3905956
169	0xbdc7098a	-0.09718616
170	0x3e989171	0.29798463
171	0xbed060f4	-0.4069897
172	0xbe79f32d	-0.2440917
173	0x3c9df39a	0.019281197
174	0xbf086d82	-0.53292096
175	0x3cce18d2	0.02515832
176	0xbf1d690a	-0.614884
177	0xbeb562ba	-0.35426885
178	0x3f094a57	0.5362906
179	0xbeeb79c5	-0.4599134
180	0x3cc7ad84	0.02437473
181	0x3e7c1759	0.24618281
182	0xbe7afb26	-0.24509868
183	0xbdbaf65d	-0.09129021
184	0x3deaf114	0.11471763
185	0xbebe5e5d	-0.37181368
186	0x3ece2a90	0.40266848
187	0x3eb3e68a	0.35136825
188	0x3ee609cf	0.44929358
189	0xbe9097e3	-0.2824088
190	0x3e1a7d43	0.15086846
191	0xbd89b525	-0.06724004
192	0xbcf434a8	-0.029810265
193	0x3e5b961e	0.21443984
194	0x3d00753c	0.031361803
195	0xbe161094	-0.14654762
196	0x3e2977d8	0.16549623
197	0xbe15238c	-0.14564341
198	0x3e477ebd	0.1948194
199	0x3ceb224b	0.028702876
200	0x3ea6835f	0.32522103
201	0x3e60a8a0	0.21939325
202	0xbdf711cb	-0.120639406
203	0x3e888877	0.26666614
204	0xbf123c1c	-0.5712297
205	0x3e8016d1	0.25017408
206	0x3e395795	0.18099816
207	0xbf1f9e77	-0.62351173
208	0x3f047f0a	0.51756346
209	0x3e9b2dac	0.30308282
210	0x3e43bf46	0.19115934
211	0x3dda8e08	0.106716216
212	0x3dac6be6	0.084190175
213	0xbd7fb9e1	-0.062433127
214	0x3ea4bdcc	0.32176054
215	0x3e7bf805	0.2460633
216	0xbe932984	-0.2874261
217	0x3eefe8ae	0.46857208
218	0x3ea1a42d	0.3157057
219	0x3eb75b6b	0.35811934
220	0x3e96cbd7	0.29452392
221	0xbd8037b2	-0.06260623
222	0x3eaee62f	0.3415999
223	0xbeac377f	-0.3363609
224	0xbd17e2c0	-0.03708148
225	0xbece52e4	-0.40297616
226	0xbe7afdf7	-0.24510942
227	0x3eafd4c5	0.34342018
228	0xbe0243b0	-0.12721133
229	0xbe1266f3	-0.14297085
230	0x3d1b0ff5	0.037857015
231	0xbe2ee6cf	-0.17080234
232	0xbe7ba927	-0.24576245
233	0x3e4ee55c	0.20204681
234	0xbda29da6	-0.07940225
235	0xbedf5148	-0.436167
236	0xbe518fe8	-0.20465052
237	0x3e2cf44b	0.16890065
238	0x3e8194aa	0.25308734
239	0x3e17e5fe	0.14833829
240	0xbed63739	-0.41839007
241	0xbebfd01c	-0.37463462
242	0xbda2b805	-0.07945255
243	0xbd313589	-0.043263946
244	0xbd8a673a	-0.0675797
245	0xbcc40fb8	-0.023933277
246	0xbebe2241	-0.3713551
247	0xbea0edde	-0.31431478
248	0xbe907ff6	-0.28222626
249	0xbeb75e42	-0.358141
250	0xbc8cb5a3	-0.017176455
251	0x3da2d006	0.079498336
252	0xbe452fdf	-0.19256543
253	0xbeab0224	-0.3340007
254	0xbd175b4b	-0.036952298
255	0xbe25009e	-0.16113517

lstm.bias_hh_l0 f4 [320]
0	0xbf18d89d	-0.59705526
1	0xbeee515f	-0.46546456
2	0xbea49cef	-0.3215098
3	0xbd57dc57	-0.052700367
4	0xbde7d5c5	-0.1132007
5	0x3ca58dd8	0.020209238
6	0x3eb217d6	0.3478381
7	0xbf066dd2	-0.5251132
8	0xbe26378b	-0.16232125
9	0xbeed5ae5	-0.4635841
10	0xbc570e7c	-0.013126012
11	0x3edb767a	0.42863828
12	0xbe75bbe7	-0.2399746
13	0xbf01f377	-0.5076212
14	0x3ed6f714	0.4198538
15	0xbe104213	-0.14087705
16	0x3eb4d0fb	0.3531569
17	0xbeed587d	-0.46356574
18	0x3de956d4	0.11393514
19	0x3ec5d597	0.3863952
20	0xbf1c8b7a	-0.61150324
21	0xbe3f1dcc	-0.1866371
22	0xbe0438a3	-0.1291223
23	0xbe14423f	-0.14478396
24	0xbf18454f	-0.59480757
25	0x3c7dbd35	0.015487005
26	0xbf0c1cad	-0.54731256
27	0xbdb1b293	-0.086766385
28	0x3ccb8924	0.024845667
29	0xbec77ac6	-0.38960856
30	0xbe87a277	-0.26491138
31	0xbf21ca1c	-0.6319902
32	0xbe7d1426	-0.24714717
33	0xbedbce71	-0.4293094
34	0xbf26b9ea	-0.6512743
35	0xbdc72dee	-0.09725557
36	0xbebf98d1	-0.37421277
37	0xbdee93e6	-0.11649303
38	0xbf36b156	-0.71364343
39	0xbe7c3e08	-0.24633038
40	0x3d1ed5b3	0.03877802
41	0xbeaf235b	-0.34206662
42	0xbeb3f0e3	-0.3514472
43	0xbe1c4c62	-0.15263513
44	0x3da59284	0.08084586
45	0xbdac65a7	-0.08417826
46	0xbeec0396	-0.46096486
47	0x3e5bfb56	0.21482596
48	0x3d94493f	0.07240533
49	0xbeba042b	-0.36331305
50	0xbef49d56	-0.47776288
51	0xbe4adcc8	-0.19810784
52	0xbf1ae6f5	-0.6050866
53	0xbeb359cd	-0.3502945
54	0xbcbf943c	-0.023386113
55	0xbe914b4c	-0.2837776
56	0xbe87d98d	-0.26533166
57	0x3db7e8c9	0.08979947
58	0xbe92f3dd	-0.28701678
59	0xbdeca259	-0.11554403
60	0xbeea5674	-0.45769083
61	0xbdfa1090	-0.1221019
62	0xbd643cd9	-0.05572209
63	0xbe74e1a4	-0.239142
64	0xbd8bae8d	-0.06820402
65	0xbe821a08	-0.25410485
66	0xbe1fb916	-0.15597948
67	0xbe780530	-0.24220729
68	0xbe89f69e	-0.26945966
69	0xbf009ada	-0.50236285
70	0xbed4fb19	-0.41597822
71	0xbf0347a8	-0.51281214
72	0xbe197724	-0.14986855
73	0xbe9edaa7	-0.31026193
74	0xbf03c02a	-0.51465094
75	0x3d8e3a19	0.06944675
76	0xbe54aa36	-0.20768055
77	0xbea314ef	-0.3185191
78	0xbe2b0037	-0.166993
79	0xbe8dade9	-0.27671745
80	0xbe57f88e	-0.2109091
81	0xbec7a5f2	-0.38993794
82	0xbe3fe654	-0.18740207
83	0x3d218a2d	0.039438415
84	0xbe4487e5	-0.19192465
85	0xbe1b20fe	-0.15149304
86	0x3e3d9201	0.18512727
87	0xbecb3a6f	-0.3969302
88	0xbde09cf6	-0.10967438
89	0xbe83c2c8	-0.25734544
90	0x3d926d3d	0.07149742
91	0x3eb08062	0.34472948
92	0x3d0c950e	0.034321837
93	0xbe8c50d3	-0.27405414
94	0x3e4aa7f6	0.19790635
95	0xbee0e434	-0.43924105
96	0x3d9cb083	0.076508544
97	0xbeab1f62	-0.3342238
98	0x3decf21e	0.11569618
99	0x3eb99320	0.3624506
100	0xbe93e908	-0.28888726
101	0xbe4f99c6	-0.20273504
102	0xbbf81a16	-0.007571469
103	0xbe0dec24	-0.13859612
104	0xbe88ea04	-0.2674104
105	0x3e73f961	0.23825599
106	0xbe4b96ac	-0.19881696
107	0x3d07e45b	0.03317676
108	0x3d7a9205	0.06117441
109	0xbea9f426	-0.33194083
110	0xbe35f136	-0.17767796
111	0xbea53b47	-0.32271788
112	0xbd1a2852	-0.03763611
113	0xbef4a10c	-0.4777912
114	0xbef268e6	-0.47345656
115	0xbd65861c	-0.0560361
116	0xbe91d2a5	-0.28481022
117	0xbdc10f9a	-0.09426804
118	0xbee4f7e5	-0.4472038
119	0xbe9272ef	-0.28603312
120	0xbd28b2e6	-0.041186236
121	0xbe939e27	-0.28831598
122	0x3d85ceaf	0.065335624
123	0xbcda65ca	-0.026659865
124	0x3de1c9ca	0.11024816
125	0xbe0e6fad	-0.13909788
126	0xbea7f36a	-0.32802898
127	0x3e0c7d45	0.13719662
128	0x3e51e698	0.20498121
129	0xbebe44ec	-0.37161958
130	0xbf3690be	-0.7131461
131	0xbe36803a	-0.17822352
132	0xbe972b46	-0.29525203
133	0xbed6139b	-0.41811833
134	0xbd9355f8	-0.071941316
135	0xbea14d16	-0.31504124
136	0xbd5c650d	-0.053807307
137	0x3dd5a72c	0.10432276
138	0xbdcfa8a9	-0.10139591
139	0xbed4ecb5	-0.41586843
140	0xbe7815bf	-0.24227045
141	0xbd94d635	-0.07267419
142	0xbc88d5f0	-0.016703576
143	0xbe878f74	-0.26476634
144	0x3cd1ab7f	0.025594471
145	0x3e56574a	0.20931736
146	0xbd818097	-0.06323355
147	0xbe78a14c	-0.2428028
148	0xbe7a664c	-0.24453086
149	0xbebf01a2	-0.37305933
150	0xbe221d80	-0.15831566
151	0xbe4a18c8	-0.19736016
152	0xbe91795b	-0.284129
153	0xbe382b5b	-0.17985289
154	0xbe2bc11a	-0.16772881
155	0x3de5dba9	0.112235375
156	0xbe728ee3	-0.2368732
157	0xbe5b4f48	-0.21416962
158	0xbe3387b1	-0.17532231
159	0xbea644ae	-0.32474273
160	0x3d62cbab	0.055370014
161	0x3e19552b	0.14973895
162	0xbd3e6683	-0.04648448
163	0x3e79179a	0.2432541
164	0xbda0b17e	-0.07846354
165	0x3f0663d6	0.5249609
166	0x3ec9a932	0.39386898
167	0x3e5f2899	0.2179283
168	0xbeb6bed7	-0.35692474
169	0x3c9f1608	0.019419685
170	0x3eba0734	0.3633362
171	0xbece7573	-0.40323982
172	0xbd5971b8	-0.053086966
173	0xbd97ce5a	-0.07412405
174	0xbea632da	-0.32460672
175	0xbce85114	-0.028358974
176	0xbf158241	-0.58401877
177	0xbeb45300	-0.35219574
178	0x3ef55e2c	0.4792341
179	0xbeee2476	-0.46512192
180	0x3dcc6399	0.09979934
181	0x3ea5a13e	0.3234958
182	0xbe2a00e5	-0.16601904
183	0xbda3e472	-0.08002557
184	0x3d86e318	0.065862834
185	0xbef81992	-0.4845701
186	0x3e911272	0.28334385
187	0x3e3e35d1	0.18575217
188	0x3f2226f3	0.6334068
189	0xbe44aa09	-0.19205488
190	0x3e5bef63	0.21478038
191	0x3d9b68fc	0.075883836
192	0xbd4cbf67	-0.049987223
193	0x3e8d087f	0.27545545
194	0x3e1c3654	0.152551
195	0xbe58f499	-0.21187057
196	0x3d1bb914	0.0380183
197	0xbc15e9b5	-0.009149958
198	0x3e649ef7	0.22326265
199	0xbda06864	-0.07832411
200	0x3e97bda2	0.29636866
201	0x3e9818f6	0.29706544
202	0xbd9bdc4d	-0.076103784
203	0x3ec22d2c	0.37925088
204	0xbecb527d	-0.3971137
205	0x3eb3b5ee	0.3509974
206	0x3da72a64	0.08162382
207	0xbf0ca358	-0.5493674
208	0x3f21bf46	0.63182485
209	0x3eb771e6	0.35829085
210	0x3e2333db	0.1593775
211	0x3c04c6d8	0.008104049
212	0x3dbec5d8	0.093150795
213	0xbda7e13f	-0.08197259
214	0x3efc942b	0.49331793
215	0x3e2402a0	0.16016626
216	0xbec2dc3f	-0.3805866
217	0x3eb30309	0.34963253
218	0x3e50f2c9	0.20405115
219	0x3e904222	0.28175455
220	0x3eba3415	0.3636786
221	0xbdf7db99	-0.12102432
222	0x3ea406a6	0.32036322
223	0xbee4abdb	-0.44662365
224	0xbe4e738b	-0.20161264
225	0xbf042b06	-0.5162815
226	0xbe65c0cd	-0.22436829
227	0x3eddef34	0.4334656
228	0xbdeedcba	-0.11663194
229	0xbe223c40	-0.15843296
230	0x3d0f0994	0.034921244
231	0xbeb5fb69	-0.35543373
232	0xbe331667	-0.17489015
233	0x3e2665d1	0.16249777
234	0xbd8b3ae9	-0.067983456
235	0xbef3edb6	-0.47642297
236	0xbe3a3bd6	-0.18186888
237	0x3e3d8bbd	0.18510337
238	0x3ecbd2fb	0.39809403
239	0x3cded9e7	0.027203513
240	0xbecdfa5a	-0.40230066
241	0xbee1ba80	-0.440876
242	0xbd3ac6bc	-0.045599684
243	0xbda7a9b8	-0.08186668
244	0xbd62bfd7	-0.055358734
245	0x3d461f7c	0.04836987
246	0xbe8e9bf8	-0.2785337
247	0xbeb6a690	-0.35673952
248	0xbe49339f	-0.19648598
249	0xbec27ce3	-0.37985906
250	0xbd961eac	-0.07330069
251	0x3e35772d	0.17721243
252	0xbe8f2bab	-0.27963004
253	0xbea5a7e1	-0.32354644
254	0x3c36230e	0.011116756
255	0xbe0d4828	-0.13797057

fc.weight f4 [1, 160]
0	0x3d842f26	0.06454305
1	0x3e6023f5	0.21888717
2	0x3cc1a375	0.023637513
3	0x3dd5c887	0.10438638
4	0xbdc8ff6f	-0.09814345
5	0x3e162fa5	0.14666612
6	0x3dc7d37b	0.097571336
7	0x3dbfd9a1	0.09367681
8	0x3d02a822	0.031898625
9	0xbe925a45	-0.28584495
10	0x3e0634d6	0.13106093
11	0xbe8b554c	-0.27213514
12	0xbe895ba1	-0.2682772
13	0xbdd2f71f	-0.10301041
14	0xbe541bf0	-0.20713782
15	0xbe7d417e	-0.24732015
16	0xbd6bdebe	-0.05758547
17	0xbea2ed48	-0.31821656
18	0x3e4fa978	0.20279491
19	0xbea182a5	-0.31544986
20	0x3e32d324	0.17463356
21	0x3d1aa223	0.037752282
22	0xbe15d7a5	-0.14633043
23	0x3d837b0a	0.06419952
24	0x3e45c0f7	0.19311891
25	0xbe667a9b	-0.22507708
26	0x3dc130b5	0.09433118
27	0xbda3d07c	-0.079987496
28	0x3cabefc1	0.020988347
29	0xbd259b47	-0.040431287
30	0x3ce7015e	0.028198894
31	0xbcb77945	-0.022396693
32	0xbe653047	-0.22381698
33	0x3da940bf	0.082643025
34	0x3e938859	0.28814963
35	0xbdd98d67	-0.106226735
36	0x3e20d1c0	0.15705013
37	0x3e2af49a	0.1669487
38	0x3da913de	0.082557425
39	0xbdb9bd43	-0.09069302
40	0x3d00e3c1	0.031467203
41	0x3dd504dc	0.104013175
42	0x3dd4e43a	0.10395093
43	0x3cf28170	0.029602736
44	0xbdde5aa0	-0.10857129
45	0x3eab1640	0.33415413
46	0xbe406203	-0.18787389
47	0xbe0a8713	-0.13528089
48	0xbc0661c8	-0.008202024
49	0xbcb9b047	-0.022667063
50	0x3e2a0a5a	0.16605511
51	0x3e947423	0.28994855
52	0x3e4f9f7b	0.2027568
53	0xbe9ca14b	-0.30591807
54	0x3da2e9f8	0.07954782
55	0xbd074ffe	-0.03303527
56	0xbe6b988c	-0.23007411
57	0x3dcde89a	0.10054131
58	0x3e2af5a0	0.16695261
59	0xbd62091c	-0.05518447
60	0x3e01d69f	0.12679528
61	0xbd26b2f7	-0.040698018
62	0x3ea3fe15	0.32029787
63	0xbc9a1c55	-0.018812338
64	0xbdca5bd9	-0.098808
65	0xbc4facdf	-0.012675493
66	0xbe3ce2cc	-0.18445891
67	0xbdc8121b	-0.09769078
68	0xbdb3227a	-0.0874681
69	0x3e2ef5cb	0.1708595
70	0x3db29645	0.08720068
71	0xbe108c1d	-0.14115949
72	0xbe4170e9	-0.18890728
73	0x3e63c3b4	0.22242624
74	0xbe4d4b77	-0.20048319
75	0xbe16eed8	-0.14739549
76	0x3e6ce518	0.23134267
77	0x3d9c84e2	0.07642533
78	0x3c793670	0.015210733
79	0xbdaa9a8e	-0.0833026
80	0xbd75f619	-0.06004915
81	0x3e13ef6c	0.14446801
82	0x3e9f08bc	0.3106135
83	0xbda29681	-0.079388626
84	0xbd78aefc	-0.060713753
85	0x3e1e1a5b	0.15439741
86	0x3e8688f2	0.26276356
87	0x3d05e44d	0.032688428
88	0x3c27c325	0.010239397
89	0xbe89d1eb	-0.26917967
90	0x3e6f04de	0.233417
91	0xbeb55ad9	-0.35420874
92	0x3e170294	0.14747077
93	0xbe027f4b	-0.12743871
94	0xbe360f03	-0.17779164
95	0x3dc22ada	0.094808295
96	0xbda0c770	-0.0785054
97	0xbd44f828	-0.048088223
98	0x3db37c65	0.08763961
99	0xbdb85413	-0.09000411
100	0x3e35c36f	0.17750333
101	0x3dc4b740	0.09605265
102	0xbc5b1849	-0.013372489
103	0xbe12c516	-0.14332995
104	0x3e453e82	0.19262126
105	0xbda17ab3	-0.07884731
106	0x3d3f10a0	0.046646714
107	0x3e6bf718	0.23043478
108	0x3d5548a4	0.05207123
109	0x3dcdaa01	0.10042191
110	0x3e69e903	0.22842793
111	0x3e04c92c	0.12967366
112	0x3de5cf31	0.11221159
113	0x3db1a153	0.08673348
114	0x3e554b4e	0.20829508
115	0xbe384493	-0.17994909
116	0x3dc8e43b	0.098091565
117	0xbe16c727	-0.14724408
118	0x3dc029e8	0.09382993
119	0xbe054343	-0.1301394
120	0x3e14da1f	0.14536332
121	0x3e201e5f	0.15636586
122	0xbe4a5519	-0.19759025
123	0x3e6ec1fe	0.2331619
124	0xbe561025	-0.20904596
125	0x3c95bab6	0.018277507
126	0xbe33e18f	-0.17566513
127	0xbcf90827	-0.030399395
128	0x3dc56a7a	0.096394494
129	0x3dc856ae	0.09782158
130	0xbcb68910	-0.022282153
131	0x3dea25a2	0.11432959
132	0x3e1312a2	0.14362577
133	0x3db92df6	0.090419695
134	0x3dd05f62	0.10174443
135	0x3cdc2a5c	0.026875667
136	0xbe42621c	-0.18982738
137	0x3e623ceb	0.22093551
138	0x3e3e72a5	0.18598421
139	0x3d879b5f	0.066214316
140	0x3de4a068	0.111634076
141	0xbea36be4	-0.31918252
142	0x3e6c0c44	0.23051554
143	0xbde9bfa7	-0.11413508
144	0xbe1a0457	-0.15040718
145	0xbe73ceb5	-0.23809321
146	0xbd1b1cda	-0.037869312
147	0x3c06a124	0.00821713
148	0xbe00e15c	-0.12585968
149	0x3e903b95	0.28170457
150	0x3e444860	0.19168234
151	0xbdd44228	-0.10364181
152	0x3e0301ee	0.12793705
153	0x3e8cdeb0	0.27513647
154	0xbc920d54	-0.017828621
155	0xbe3e0a5f	-0.18558644
156	0xbbce2d5a	-0.0062920274
157	0x3e17b3cb	0.1481468
158	0x3e0ce926	0.13760814
159	0xbe266034	-0.16247636
