model_ending_1.pth (torch, 673105 bytes, 6 tensors)

embedding.weight f4 [9089, 15]
-1.351086 0.98274225 -0.21150665 2.3617256 -3.0823147 -1.5722312 -1.3866935 -0.6274396
0.98944837 -0.52247024 -1.758187 -0.0044671195 -0.43781537 -0.0178826 1.3339084 0.0
0.0 0.0 0.0 0.0 0.0 0.0 0.0 0.0
0.0 0.0 0.0 0.0 0.0 0.0 -0.19826232 -1.5809544
2.0401921 1.7553058 -0.99629223 -1.2213317 -1.5269357 0.92188144 -2.3269308 1.3231485
-2.849429 -1.6988492 2.272067 2.1491482 2.1545749 1.5124409 2.5033891 1.0298362
-1.8826735 3.0332239 1.1907092 0.2599069 -1.0463382 -1.3106394 -2.2221727 0.69209063
-2.8861623 -1.3337722 -0.089146115 -0.6174785 2.7475588 0.60313153 -0.5675163 -2.8971965
-0.5077097 -0.18355523 2.836526 -2.3940072 -1.8621881 -1.8564199 -3.1370628 -3.450885
1.5022323 1.7513096 0.00826719 0.9589518 1.630218 -0.086203694 -2.6201408 -1.002449
2.1303327 -3.751164 0.66538787 -0.39830372 -0.27539742 2.3518908 -1.1360308 -1.4740603
-2.7657611 -0.44940093 -2.4380093 0.7153443 -2.6057372 -1.2219311 -1.4790508 -3.5251412
0.65122956 0.23141049 0.61589223 0.006275834 -1.8183335 -1.2299286 -3.8741264 -0.77018505
-2.1722674 -0.35838357 -0.31548682 2.419968 -0.73425436 2.2268333 -0.8534385 -1.164228
-1.6731126 2.0411806 -0.8575146 -1.4651519 0.48455366 0.56614006 2.8092601 2.083658
0.41633052 1.3717014 -2.1009567 0.6509945 -2.0337477 -2.0861104 3.3648891 -0.7419175
-0.10457054 -2.8749762 -0.89423466 -0.5020468 -1.041943 0.14802901 -4.8359265 -1.6483074
-1.9295967 -0.12532313 2.7424254 0.5319005 0.854114 1.2756188 1.2650958 -0.9713401
2.015998 -0.18007877 0.6712489 -0.55239207 -0.94674695 1.4976871 2.0688226 0.26359755
0.16482349 0.31962544 -0.8307847 1.0991 1.1729376 2.0328925 1.2178653 -0.40499324
-1.3738948 -0.0056041777 -0.29531485 -3.091789 1.3703372 -1.7858413 0.7997815 -1.4751841
-2.0478377 -1.8025702 -0.5239977 0.1820582 -2.022266 -0.64766574 -0.50350475 1.3742129
-0.65293914 0.7304794 -3.2225842 -0.86943823 -0.5178453 -1.2319294 2.896852 -0.20573571
-0.44816345 2.0858533 -3.8425536 1.7631518 0.5384695 2.6946998 1.4528954 1.1073214
0.6169471 -3.2306402 4.1631336 0.2570933 2.553991 -0.5358134 1.8083465 0.18877675
2.789458 -2.2459846 3.6868608 -1.7077372 2.8697064 1.5704223 -1.8045543 0.81445485
-2.468757 -0.036350537 -2.8950768 2.2667694 -3.854003 -2.875811 -0.48557562 -1.2406981
-0.58526707 -1.8003699 -0.27551457 -1.286225 -1.0963022 0.24973138 -0.94084674 -0.64456266
0.69830346 -3.0734048 1.7098551 -1.9996427 -0.7590453 0.020985097 2.0083468 -0.584203
0.8720161 2.285806 2.970863 1.736523 -2.2142735 2.8265524 -3.7786973 -3.173202
-1.6211349 3.6867914 0.8408509 3.4284947 -1.5330462 4.0074205 1.172079 2.5075774
1.082013 4.1872144 0.17680575 0.5265846 -1.3521491 -3.0408094 4.0677195 1.1775415
00000000: 63f0 acbf ff94 7b3f 3395 58be 8326 1740
00000010: a544 45c0 df3e c9bf 2c7f b1bf e29f 20bf
00000020: 7d4c 7d3f 9cc0 05bf 460c e1bf ea60 92bb
00000030: 5629 e0be 887e 92bc 83bd aa3f 0000 0000
00000040: 0000 0000 0000 0000 0000 0000 0000 0000
00000050: 0000 0000 0000 0000 0000 0000 0000 0000
00000060: 0000 0000 0000 0000 0000 0000 0000 0000
00000070: 0000 0000 0000 0000 4705 4bbe b75c cabf
00000080: 8292 0240 dcad e03f 020d 7fbf 9954 9cbf
00000090: a172 c3bf 6c00 6c3f 6fec 14c0 ee5c a93f
000000a0: 0b5d 36c0 e473 d9bf 8c69 1140 a58b 0940
000000b0: 8ee4 0940 aa97 c13f 8737 2040 acd1 833f
000000c0: 72fb f0bf 5720 4240 2969 983f 8412 853e
000000d0: 69ee 85bf 08c3 a7bf 1438 0ec0 da2c 313f
000000e0: e2b6 38c0 0cb9 aabf 3d92 b6bd 1213 1ebf
000000f0: 01d8 2f40 d466 1a3f c048 11bf ab6b 39c0
00000100: 43f9 01bf e7f5 3bbe a489 3540 6a37 19c0
00000110: 2e5c eebf 2b9f edbf a3c5 48c0 4ddb 5cc0
00000120: 2649 c03f ea2a e03f 1c73 073c dd7d 753f
00000130: fcaa d03f 908b b0bd 63b0 27c0 4050 80bf
00000140: 5f57 0840 1213 70c0 dc56 2a3f 77ee cbbe
00000150: e400 8dbe 6185 1640 7569 91bf 02ae bcbf
00000160: 3b02 31c0 e117 e6be 5808 1cc0 ce20 373f
00000170: 66c4 26c0 3d68 9cbf 8951 bdbf ea9b 61c0
00000180: fbb6 263f dff6 6c3e 1dab 1d3f 83a5 cd3b
00000190: 27bf e8bf 4d6e 9dbf b0f1 77c0 d92a 45bf
000001a0: 6e06 0bc0 0d7e b7be 7d87 a1be c1e0 1a40
000001b0: 18f8 3bbf 7084 0e40 f27a 5abf 6c05 95bf
000001c0: 8e28 d6bf b4a2 0240 1486 5bbf 198a bbbf
000001d0: 6b17 f83e 8eee 103f ebca 3340 a75a 0540
000001e0: 4629 d53e e993 af3f 1376 06c0 93a7 263f
000001f0: ec28 02c0 d582 05c0 585a 5740 4eee 3dbf
00000200: 1429 d6bd 9cff 37c0 90ec 64bf 2486 00bf
00000210: 635e 85bf eb94 173e e9bf 9ac0 bdfb d2bf
00000220: 06fd f6bf b554 00be e683 2f40 a22a 083f
00000230: 37a7 5a3f 7a47 a33f a9ee a13f bfa9 78bf
00000240: 1c06 0140 9266 38be f8d6 2b3f 9169 0dbf
00000250: 025e 72bf 36b4 bf3f 9767 0440 42f6 863e
00000260: 7dc7 283e f2a5 a33e 4eae 54bf 4faf 8c3f
00000270: d222 963f e91a 0240 03e3 9b3f 465b cfbe
00000280: c9db afbf 40a3 b7bb 8233 97be dfdf 45c0
00000290: 3667 af3f 7396 e4bf 7bbe 4c3f d5d2 bcbf
000002a0: c60f 03c0 9fba e6bf b724 06bf 776d 3a3e
000002b0: ce6c 01c0 6ccd 25bf b0e5 00bf 35e6 af3f
000002c0: 0527 27bf b300 3b3f d23e 4ec0 8193 5ebf
000002d0: 8291 04bf ddaf 9dbf 0666 3940 62ac 52be
000002e0: ae75 e5be 9f7e 0540 66ec 75c0 f5ae e13f
000002f0: 23d9 093f f675 2c40 7af8 b93f b5bc 8d3f
00000300: 3ff0 1d3f cfc2 4ec0 6438 8540 bca1 833e
00000310: 9774 2340 112b 09bf e677 e73f b14e 413e
00000320: 7b86 3240 36be 0fc0 87f5 6b40 2297 dabf
00000330: 45a9 3740 9903 c93f a3fb e6bf 1d80 503f
00000340: 1d00 1ec0 4de4 14bd f048 39c0 c012 1140
00000350: fca7 76c0 4a0d 38c0 5e9d f8be 32cf 9ebf
00000360: 10d4 15bf 8572 e6bf 3f10 8dbe 05a3 a4bf
00000370: a153 8cbf 95b9 7f3e 55db 70bf 0f02 25bf
00000380: 04c4 323f aab2 44c0 88dc da3f 4bf4 ffbf
00000390: cb50 42bf f0e8 ab3c c188 0040 548e 15bf
000003a0: 723c 5f3f a54a 1240 9f22 3e40 6346 de3f
000003b0: a8b6 0dc0 3ce6 3440 2dd6 71c0 be15 4bc0
000003c0: 5981 cfbf 64f4 6b40 0142 573f 756c 5b40
000003d0: dc3a c4bf ca3c 8040 af06 963f 267c 2040
000003e0: 677f 8a3f a9fd 8540 910c 353e 40ce 063f
000003f0: 3913 adbf 9f9c 42c0 c22a 8240 aeb9 963f

lstm.weight_ih_l0 f4 [320, 15]
-1.4382222 -1.4040647 -1.6676543 -1.8802783 2.9714835 0.5645781 -1.5327619 -1.7647854
0.34670728 -0.46770132 2.743957 -0.12453801 -1.8837613 2.0493321 -1.0584065 -1.5553725
1.0980852 0.77632064 -0.41548684 -0.49137327 -2.2026625 1.926592 -0.44809616 1.9019947
0.02978699 -1.5231539 1.4468198 0.5653071 0.5921169 0.6354755 1.63357 1.2436393
-0.2570595 -1.7520045 1.0146731 -0.5176723 1.1110182 -0.6161222 1.1379502 -0.47254094
0.85285854 1.5826325 -0.53918165 0.12486143 0.43451253 0.20047438 0.0047185654 1.5893856
-1.22098 -0.87919414 -0.5318532 1.601959 -0.12990744 -0.45950094 -0.34330264 2.1616542
-2.3085203 -2.0521655 -2.2452228 -1.6952242 1.8538359 -0.09416639 -0.6618664 1.1221985
0.59342915 0.8805458 0.09256465 -1.1834686 1.5230758 -0.49967465 -3.465008 0.68918496
2.4046462 1.0265111 0.56714624 -2.3900325 -0.34040776 1.5324891 0.45240575 -2.6281817
-1.8320774 -0.55509907 -0.033228632 -1.8953252 -0.3446998 -2.3540754 0.85225564 0.052743945
1.8134056 0.37316808 -0.615605 -1.3214868 0.44819698 -1.2306513 -1.4511968 -2.7368646
-1.2785647 -1.1471502 1.1371635 -0.7773842 1.4503042 1.0494213 1.348846 0.18138877
-1.4318254 -0.63326555 -0.80576515 -1.9845914 -1.0628314 -0.4512844 -1.4809612 0.9351333
0.16911241 0.5028759 0.8230557 0.61585367 1.9022021 -0.35307068 -0.60927624 -0.8874907
1.3184652 -0.035345055 -0.68520474 1.5588963 -3.9548743 1.4868374 1.86848 0.4500348
1.9895294 0.52053905 0.73520327 1.0093472 1.9025747 -1.6165068 0.4345626 2.0719085
2.2953186 -2.0769632 0.4721876 -2.5674107 2.1170204 0.9416014 0.24705404 -0.48844123
-0.18733905 1.479044 0.6522829 -0.9806828 -0.05195771 -1.0869627 -1.0514562 2.4002202
-0.15255393 1.7395667 -1.3625962 0.020046687 -0.0122991055 -0.021252291 -2.1813104 -1.6047841
-0.35789794 0.092199765 -2.2521589 1.16447 -0.33568892 -1.2732042 -0.22302061 1.8907543
0.51902133 -0.09537579 -2.3387654 0.8485554 1.1193066 0.01833461 -1.0205508 -2.2457507
-2.5505016 0.28305683 0.25916547 -0.81377935 -2.3328238 -0.6788096 -0.1778718 1.3218055
-0.97752553 -1.2771989 1.7110318 -0.8293442 -1.1301581 -0.8174947 0.5204722 -3.2116883
1.7808728 -0.0067704082 0.3441501 -0.4573382 -0.9782469 1.9432002 -1.6248388 1.8368206
-0.09747071 -0.98053867 -0.620495 1.0270926 -1.059592 -0.8164593 -0.50418186 0.18682866
1.259908 -0.6829181 0.26069567 0.7427675 -1.7284915 1.1114999 1.0821723 2.2338946
0.1507985 -2.5206687 1.3115457 0.88734615 0.20699096 -2.5873468 0.23798867 -1.9027374
-2.0947747 -2.584827 -1.0778159 -0.954588 -0.19922008 -2.7367826 0.7722412 -0.22391956
1.1873243 1.2010477 0.25668097 -0.75492543 2.1581326 -1.0231026 -1.7823008 0.8232884
-0.38300008 0.62418854 0.94848734 -0.2770779 0.23409767 -1.1909132 -0.44263047 -2.1582139
-2.5518546 -1.9012489 -1.2987363 0.45524785 0.8505529 1.5328029 -0.15397781 1.992652
00000000: aa17 b8bf 64b8 b3bf b275 d5bf f6ac f0bf
00000010: c92c 3e40 3188 103f 8b31 c4bf 7de4 e1bf
00000020: 9e83 b13e 8c76 efbe fe9c 2f40 c90d ffbd
00000030: 171f f1bf 4228 0340 dd79 87bf 7216 c7bf
00000040: 0e8e 8c3f f3bc 463f b1ba d4be 4795 fbbe
00000050: 6cf8 0cc0 919a f63f dc6c e5be 9074 f33f
00000060: d803 f43c b5f6 c2bf 6431 b93f f7b7 103f
00000070: f994 173f 86ae 223f d218 d13f 932f 9f3f
00000080: 4e9d 83be af41 e0bf cfe0 813f 2c86 04bf
00000090: d835 8e3f 2fba 1dbf 5aa8 913f e3f0 f1be
000000a0: f054 5a3f b493 ca3f cf07 0abf 59b7 ff3d
000000b0: 6d78 de3e 2849 4d3e 329e 9a3b fd70 cb3f
000000c0: 1349 9cbf de12 61bf 8827 08bf fe0c cd3f
000000d0: 7506 05be b543 ebbe 5dc5 afbe 8b58 0a40
000000e0: ccbe 13c0 ae56 03c0 bbb1 0fc0 1bfd d8bf
000000f0: 7f4a ed3f 4fda c0bd 1470 29bf 33a4 8f3f
00000100: f9ea 173f 736b 613f 8992 bd3d e67b 97bf
00000110: 26f4 c23f 5bd5 ffbe b1c2 5dc0 6d6e 303f
00000120: b9e5 1940 b764 833f 7f30 113f 4bf6 18c0
00000130: ed49 aebe 9a28 c43f baa1 e73e 2134 28c0
00000140: 8381 eabf f91a 0ebf bf1a 08bd 049a f2bf
00000150: 7e7c b0be 2ca9 16c0 6d2d 5a3f 090a 583d
00000160: ad1d e83f e30f bf3e 4a98 1dbf 7b26 a9bf
00000170: 137a e53e fb85 9dbf d1c0 b9bf ca28 2fc0
00000180: 02a8 a3bf d1d5 92bf 938e 913f a702 47bf
00000190: 91a3 b93f 7053 863f fca6 ac3f fabd 393e
000001a0: 0e46 b7bf b11d 22bf a046 4ebf 1707 febf
000001b0: dc0a 88bf c00e e7be 2390 bdbf e564 6f3f
000001c0: ce2b 2d3e 7abc 003f c7b3 523f 96a8 1d3f
000001d0: 5c7b f33f aec5 b4be 87f9 1bbf 9732 63bf
000001e0: 78c3 a83f fac5 10bd 9469 2fbf ea89 c73f
000001f0: a91c 7dc0 b050 be3f 5a2a ef3f f66a e63e
00000200: e6a8 fe3f 0c42 053f 4836 3c3f 4a32 813f
00000210: 9187 f33f b2e9 cebf fd7e de3e 269a 0440
00000220: 80e6 1240 f7ec 04c0 93c2 f13e 7550 24c0
00000230: 437d 0740 ca0c 713f bcfb 7c3e f814 fabe
00000240: cfd5 3fbe 5051 bd3f 03fc 263f 070e 7bbf
00000250: 9cd1 54bd 9821 8bbf 1e96 86bf 359d 1940
00000260: 1937 1cbe 1faa de3f 8d69 aebf f338 a43c
00000270: 3082 49bc 4919 aebc 979a 0bc0 9169 cdbf
00000280: 663e b7be 3bd3 bc3d 5f23 10c0 5a0d 953f
00000290: 6bdf abbe 5bf8 a2bf 845f 64be 3d04 f23f
000002a0: 95de 043f 6254 c3bd 55ae 15c0 ed3a 593f
000002b0: 7045 8f3f 7732 963c 69a1 82bf 61ba 0fc0
000002c0: 6b3b 23c0 d3ec 903e 56b1 843e d853 50bf
000002d0: fc4c 15c0 77c6 2dbf 0624 36be ec30 a93f
000002e0: 1d3f 7abf 417b a3bf 1703 db3f e74f 54bf
000002f0: 05a9 90bf 5547 51bf ab3d 053f 4d8c 4dc0
00000300: a4f3 e33f 4dda ddbb 7134 b03e 3c28 eabe
00000310: 646e 7abf c9ba f83f b8fa cfbf f01c eb3f
00000320: b99e c7bd 9504 7bbf c3d8 1ebf c577 833f
00000330: b6a0 87bf 7a03 51bf 1012 01bf 0350 3f3e
00000340: aa44 a13f b8d3 2ebf e779 853e 0326 3e3f
00000350: 363f ddbf a145 8e3f 9f84 8a3f 21f8 0e40
00000360: ec6a 1a3e a352 21c0 bbe0 a73f 1e29 633f
00000370: 70f5 533e 1797 25c0 4db3 733e e68c f3bf
00000380: ca10 06c0 ce6d 25c0 dff5 89bf e15f 74bf
00000390: 5900 4cbe 7227 2fc0 99b1 453f 2b4b 65be
000003a0: 3efa 973f eebb 993f b06b 833e cb42 41bf
000003b0: d81e 0a40 07f5 82bf 6f22 e4bf 07c3 523f
000003c0: 9618 c4be d2ca 1f3f 11d0 723f 28dd 8dbe
000003d0: 4db7 6f3e d86f 98bf 76a0 e2be 2d20 0ac0
000003e0: 9651 23c0 205c f3bf fe3c a6bf 3f16 e93e
000003f0: d6bd 593f e332 c43f 5cac 1dbe 390f ff3f

lstm.weight_hh_l0 f4 [320, 80]
-1.3471484 1.9084128 0.38870615 1.4556028 -0.4306457 -2.0003357 -1.7245355 1.0648769
-0.69324803 3.1073258 0.32181954 0.73066086 0.79963213 -0.4096343 -1.1416961 -1.1896335
-0.44896445 -0.41754022 0.47864175 0.041476488 -1.673737 -0.61979985 -0.85957026 0.5437146
-1.2420833 -1.0848758 -0.9985738 0.373351 0.7432906 -1.6851811 0.6759983 -0.5890507
0.754144 0.17551227 0.6333083 -1.4157914 -3.0784936 1.2105668 1.4591701 -2.0534458
1.3147026 -1.1721196 -1.3132559 1.8134235 0.5095964 1.861861 0.7386112 -0.12112355
1.1053401 -0.62583584 -1.9888453 0.45875818 -0.16143836 -1.5905968 0.06547382 0.76778114
0.8124398 0.3307378 -1.2266583 -1.5602682 0.16403985 -0.34320658 -1.0704943 -3.4765177
-0.09607589 -0.65481365 -1.1565081 -0.54425645 0.3126536 0.8747202 3.1994784 -1.9674695
2.1625419 0.18729499 -0.009194437 -2.0501466 0.8663923 -1.5710719 -0.7308775 -0.6624677
-0.50041956 2.6185513 0.8903256 0.040235694 -1.29696 -0.78217375 1.4520868 -2.1682773
-2.4157598 -0.38055354 1.2036816 -1.1992906 1.3052715 -0.34232417 2.3734212 0.6327059
-1.3845979 0.7446728 0.5718255 2.058282 0.07223196 2.697304 1.0093236 0.4310949
0.059134968 -0.27332276 0.7814671 1.857376 -1.3568754 2.751779 -2.119031 1.6224787
-1.6435215 1.8466332 1.662759 1.8962603 1.3408039 2.1017385 -1.1540738 1.9548813
-1.1693237 1.7741457 0.994824 1.4331282 -0.35519022 -0.8845648 -1.5484687 0.07359402
-1.818214 1.1656235 1.2935703 0.904345 -0.6946243 0.40824315 2.2770948 0.30537742
-0.12954405 0.7772618 0.34945092 1.1783293 -2.481748 1.4421341 -1.0002332 1.74346
0.013891376 2.1029625 -1.1558015 0.36996058 -0.36686933 -2.3096123 -0.20411833 -0.45011935
-2.3920043 0.5775617 1.1205646 1.917224 -1.6614082 2.2087233 0.7319505 -1.4989827
0.24306375 1.4094335 1.949916 1.0060419 0.6319265 -0.5207565 -1.4813573 -1.2460984
0.54073566 -1.394947 -0.51868016 -0.10111757 2.1585948 0.74328375 -0.4664713 0.9868506
0.5149577 0.7731927 1.1084485 -1.8193846 -1.5898379 -1.6701213 -0.9668304 1.8897387
-1.125981 -2.28713 -0.93646264 -0.25849283 -0.22167182 -0.7271454 1.6670433 -1.1141562
-0.54311126 0.32079482 1.4325271 -2.981031 0.18869294 -0.67039067 -1.1835711 0.20542216
1.3309408 -0.84166026 -1.05609 -0.021058127 -0.8342902 0.62597466 1.9613628 1.5568467
1.2262229 0.40592137 0.7500229 0.4991813 -1.6712073 1.3544284 -1.2996032 0.24396008
-0.9912449 -2.2931314 1.3714898 1.556713 1.1788595 -1.4046293 0.29560462 0.96247625
1.1747364 2.382623 1.2576516 1.7217875 0.62127507 0.76135623 -0.9714406 -1.7528546
0.7446888 1.527273 1.0223306 0.35531074 -1.2057263 -1.8906208 -1.3809179 0.40121886
-0.45433664 -0.26669744 0.7299747 0.52908194 -0.8280806 -1.6943507 -0.316682 -1.7559615
-1.5817028 -0.7941869 0.32899192 -1.6885815 1.9559442 -0.3966833 1.2723402 -0.43073002
00000000: 5c6f acbf df46 f43f 7e04 c73e 3151 ba3f
00000010: 987d dcbe 8005 00c0 94bd dcbf e34d 883f
00000020: b478 31bf 6dde 4640 88c5 a43e 970c 3b3f
00000030: b1b4 4c3f 96bb d1be 1923 92bf e945 98bf
00000040: abde e5be d5c7 d5be 8810 f53e 40e3 293d
00000050: 043d d6bf 34ab 1ebf cc0c 5cbf e130 0b3f
00000060: 96fc 9ebf 36dd 8abf 88a2 7fbf dd27 bf3e
00000070: 4b48 3e3f 04b4 d7bf 390e 2d3f 07cc 16bf
00000080: 950f 413f 7db9 333e 7e20 223f a738 b5bf
00000090: 0a06 45c0 daf3 9a3f 16c6 ba3f a86b 03c0
000000a0: 2d48 a83f 0408 96bf c518 a8bf 431e e83f
000000b0: e974 023f 7651 ee3f a015 3d3f a00f f8bd
000000c0: c97b 8d3f c736 20bf 7c92 febf 5ae2 ea3e
000000d0: 1950 25be ad98 cbbf 2317 863d 4e8d 443f
000000e0: 0efc 4f3f 7756 a93e 2403 9dbf deb6 c7bf
000000f0: 10fa 273e c6b8 afbe f505 89bf 447f 5ec0
00000100: 70c3 c4bd dea1 27bf 7508 94bf 6454 0bbf
00000110: 2214 a03e aaed 5f3f 41c4 4c40 0ad6 fbbf
00000120: 1667 0a40 42ca 3f3e 44a4 16bc 9a35 03c0
00000130: e3cb 5d3f e218 c9bf ca1a 3bbf 7c97 29bf
00000140: 7f1b 00bf 5896 2740 61ec 633f 2fce 243d
00000150: c902 a6bf 8a3c 48bf fbdd b93f 0ec5 0ac0
00000160: cf9b 1ac0 ead7 c2be 3d12 9a3f 5b82 99bf
00000170: 2313 a73f 1d45 afbe 22e6 1740 04f9 213f
00000180: 813a b1bf e0a2 3e3f 2863 123f e4ba 0340
00000190: 5aee 933d a1a0 2c40 8431 813f 79b8 dc3e
000001a0: 8237 723d f6f0 8bbe 3a0e 483f 7fbe ed3f
000001b0: 18ae adbf 261d 3040 349e 07c0 62ad cf3f
000001c0: ea5e d2bf 7a5e ec3f 49d5 d43f a8b8 f23f
000001d0: 769f ab3f e282 0640 b1b8 93bf 8d39 fa3f
000001e0: 66ac 95bf 3517 e33f c9ac 7e3f bf70 b73f
000001f0: 7edb b5be d772 62bf 3934 c6bf 76b8 963d
00000200: 3dbb e8bf 2733 953f b693 a53f 2783 673f
00000210: e6d2 31bf 3f05 d13e ecbb 1140 6e5a 9c3e
00000220: 32a7 04be a1fa 463f 3beb b23e 7fd3 963f
00000230: f6d4 1ec0 da97 b83f a407 80bf b329 df3f
00000240: a798 633c f096 0640 4ef1 93bf 796b bd3e
00000250: 4cd6 bbbe b0d0 13c0 6504 51be 0b76 e6be
00000260: 9916 19c0 15db 133f a96e 8f3f 9967 f53f
00000270: 06a9 d4bf b95b 0d40 1c61 3b3f aade bfbf
00000280: b4e5 783e 5168 b43f d996 f93f fbc5 803f
00000290: efc5 213f 4c50 05bf 1e9d bdbf 2780 9fbf
000002a0: a76d 0a3f a08d b2bf 39c8 04bf bb16 cfbd
000002b0: 6b26 0a40 d847 3e3f 54d5 eebe 3ea2 7c3f
000002c0: 45d4 033f f5ef 453f a4e1 8d3f 98e1 e8bf
000002d0: cf7f cbbf 89c6 d5bf 3282 77bf f5e2 f13f
000002e0: 2520 90bf 5760 12c0 04bc 6fbf 2c59 84be
000002f0: f0fd 62be 3326 3abf ad61 d53f ac9c 8ebf
00000300: 5709 0bbf 383f a43e 0c5d b73f 36c9 3ec0
00000310: b938 413e b99e 2bbf 427f 97bf 305a 523e
00000320: 455c aa3f 0c77 57bf f52d 87bf 1882 acbc
00000330: 0b94 55bf e03f 203f f00d fb3f c146 c73f
00000340: dff4 9c3f edd4 cf3e 8001 403f b194 ff3e
00000350: 1fea d5bf e95d ad3f 6659 a6bf acd0 793e
00000360: 3ac2 7dbf aac2 12c0 fa8c af3f 5f42 c73f
00000370: dee4 963f e5ca b3bf 7d59 973e d864 763f
00000380: c35d 963f e57c 1840 bafa a03f 8863 dc3f
00000390: e20b 1f3f 3ee8 423f 55b0 78bf 8a5d e0bf
000003a0: eda3 3e3f af7d c33f bbdb 823f 4aeb b53e
000003b0: 3d55 9abf ddff f1bf ebc1 b0bf 8f6c cd3e
000003c0: d09e e8be 918c 88be 9fdf 3a3f ea71 073f
000003d0: 17fd 53bf 7ce0 d8bf 2524 a2be 59c3 e0bf
000003e0: 3d75 cabf d54f 4bbf a171 a83e 7023 d8bf
000003f0: 615c fa3f 131a cbbe 0bdc a23f a588 dcbe

lstm.bias_ih_l0 f4 [320]
1.2631521 -1.9019635 0.6214598 0.48146546 -1.9155592 -0.32735893 0.5669833 -2.0430899
-1.3900585 1.6250293 -1.7278548 -1.6554338 0.034357995 -0.3139438 1.1517094 1.2555954
-2.7032945 0.6381166 0.36033192 -0.5462728 -2.4846134 0.22253966 -0.22696622 -2.0901117
-0.0634412 0.9989321 -0.5651338 -1.1445554 -1.1976861 1.2119747 0.361421 -2.149027
-0.31702027 2.5656261 0.74399006 -1.5568576 0.26885107 0.5375315 1.0059524 0.7903683
-0.677079 0.92237705 1.0687107 0.87543267 1.1350659 -1.4555088 -0.76944876 -1.8245218
-1.7905031 0.2636127 1.9670768 0.76543355 -0.04349874 -1.0303288 -1.5837463 -1.5270069
-0.11335725 -0.36255768 -2.6163657 -0.4014428 -1.3924052 0.4601382 1.3210112 2.0770745
0.6386821 -0.3568433 -1.6266794 -0.0476573 0.81480515 1.7560382 1.3653255 0.27532977
1.5741106 1.1864898 1.9401249 1.679668 0.9687814 2.1993635 -0.78908247 -1.9921454
0.6956102 -1.9279203 0.24939238 -2.7630668 -0.84158105 0.690203 1.0452074 -0.075399704
-2.0555162 1.7349476 0.16074683 1.3089576 -0.8844571 -1.5610656 -1.388772 1.1130786
-0.13054492 -1.240333 -0.63630366 -0.34172592 2.1030574 0.6014523 -1.0763165 1.608104
-1.4729757 -1.4325554 0.57102007 2.9374175 -2.5010562 1.0536268 1.8017883 -1.746492
-0.52966803 1.9793193 -0.037700605 1.6849406 -1.3353503 -0.84294933 -1.8403059 1.4639187
-0.88995695 -0.04281318 0.84090894 -1.3521334 -2.0016596 -0.5642657 0.24681333 -0.6571897
-1.2115732 0.034616835 1.739179 -1.4098016 -1.2896588 -0.2116582 1.7941111 1.2519182
-2.2239397 0.23378716 -1.7224588 -1.8088874 -0.07115152 -1.310298 1.2131034 1.8632916
-1.2904528 0.29733872 -1.912806 0.44401538 0.67591095 -1.4675102 -1.5752351 1.5126195
0.49906075 -1.0882596 -0.5953894 0.11303612 -0.8981948 1.1550913 0.14067665 0.5483636
1.5826011 -1.6661676 -1.5934722 0.8143958 -0.40256804 -0.7093287 -1.2868923 1.1931307
0.17870772 -0.7641736 1.5708821 2.0393171 0.8332112 -0.47716513 1.3118808 -2.1111228
1.0403886 1.5166156 -1.4396056 -0.85734594 0.65545815 -1.3764249 -0.9020418 -1.6227567
-2.1803648 -0.33423492 -1.6477946 -0.37182093 0.774488 -1.9027588 0.73213536 0.6138493
1.1956569 0.55996066 2.1031947 -2.221167 -1.9423188 1.650862 0.71562016 -2.2806005
-0.16144456 0.86099327 -2.4149973 -1.7637925 -0.88006735 -0.19893289 0.26116514 -0.033232603
2.515919 -0.27372575 -1.0513124 -0.5178609 -1.2261302 -1.0466897 -1.4724325 -1.6688482
-0.19492975 -0.4068674 0.75456566 -1.7571985 -0.38446704 -0.6836394 1.4662656 -2.8029501
2.4210653 -0.55035335 -1.323069 -1.003676 1.5324595 0.46555573 -0.907345 -2.087768
-1.6948117 1.1098671 -1.8987423 1.0379207 -2.2541664 -0.88175595 0.38701868 1.4681953
0.011077932 0.5455467 -1.137365 0.9912372 1.1054406 -0.42175588 -0.29479796 -1.9135343
-2.2314718 -0.64909554 0.4921918 0.56724423 0.6547301 -0.9980341 -0.2406187 0.22678603
00000000: f8ae a13f 8a73 f3bf fd17 1f3f a482 f63e
00000010: 0b31 f5bf 979b a7be d125 113f fcc1 02c0
00000020: 70ed b1bf f600 d03f 592a ddbf 41e5 d3bf
00000030: f8ba 0c3d 3ebd a0be 376b 933f 5ab7 a03f
00000040: c702 2dc0 9c5b 233f 6d7d b83e 89d8 0bbf
00000050: e803 1fc0 70e1 633e d569 68be 64c4 05c0
00000060: 76ed 81bd 04ba 7f3f 9cac 10bf cb80 92bf
00000070: c74d 99bf fd21 9b3f 2c0c b93e a989 09c0
00000080: 7b50 a2be 3833 2440 2276 3e3f 1c47 c7bf
00000090: d9a6 893e aa9b 093f 0cc3 803f 9455 4a3f
000000a0: 0d55 2dbf e720 6c3f 83cb 883f 5b1c 603f
000000b0: d749 913f 1d4e babf 98fa 44bf ee89 e9bf
000000c0: 352f e5bf 3ef8 863e 2cc9 fb3f 74f3 433f
000000d0: bc2b 32bd d0e1 83bf 33b8 cabf f674 c3bf
000000e0: d927 e8bd 29a1 b9be 8972 27c0 e989 cdbe
000000f0: 553a b2bf 3c97 eb3e e516 a93f caee 0440
00000100: ac80 233f 2ab4 b6be 0837 d0bf 4d34 43bd
00000110: 1297 503f dcc5 e03f fcc2 ae3f 06f8 8c3e
00000120: 757c c93f e6de 973f 0356 f83f 5cff d63f
00000130: 0f02 783f 5fc2 0c40 4f01 4abf 9ffe febf
00000140: 8313 323f 18c6 f6bf b760 7f3e 16d6 30c0
00000150: db71 57bf 25b1 303f 5bc9 853f 296b 9abd
00000160: 948d 03c0 c312 de3f d19a 243e ec8b a73f
00000170: c86b 62bf ffd0 c7bf 48c3 b1bf 5c79 8e3f
00000180: 91ad 05be 3bc3 9ebf cce4 22bf b3f6 aebe
00000190: 7e98 0640 c7f8 193f bdc4 89bf 5ad6 cd3f
000001a0: 788a bcbf fa5d b7bf 5f2e 123f a6fe 3b40
000001b0: 4e11 20c0 3edd 863f 00a1 e63f 0d8d dfbf
000001c0: 5398 07bf 565a fd3f f36b 1abd 22ac d73f
000001d0: c2ec aabf 87cb 57bf 258f ebbf b061 bb3f
000001e0: 38d4 63bf df5c 2fbd cf45 573f b512 adbf
000001f0: 311b 00c0 b873 10bf a2bc 7c3e 963d 28bf
00000200: d514 9bbf 62ca 0d3d 6b9d de3f 6174 b4bf
00000210: 8a13 a5bf edbc 58be 6fa5 e53f db3e a03f
00000220: 0755 0ec0 e765 6f3e 8879 dcbf 9f89 e7bf
00000230: e3b7 91bd d8b7 a7bf f946 9b3f 5780 ee3f
00000240: 8f2d a5bf c83c 983e d4d6 f4bf fc55 e33e
00000250: 8008 2d3f 60d7 bbbf 4ea1 c9bf 849d c13f
00000260: e484 ff3e 174c 8bbf 716b 18bf 7b7f e73d
00000270: 18f0 65bf 08da 933f 8a0d 103e 8f61 0c3f
00000280: ac92 ca3f fb44 d5bf e6f6 cbbf 3e7c 503f
00000290: 661d cebe 9196 35bf e3b8 a4bf 82b8 983f
000002a0: 28ff 363e e2a0 43bf aa12 c93f 2c84 0240
000002b0: 544d 553f fd4e f4be b6eb a73f a31c 07c0
000002c0: 742b 853f 7620 c23f ff44 b8bf 067b 5bbf
000002d0: 1bcc 273f b12e b0bf 36ec 66bf 7eb6 cfbf
000002e0: 198b 0bc0 d720 abbe efea d2bf 505f bebe
000002f0: d844 463f 9a8d f3bf 396d 3b3f 3a25 1d3f
00000300: 490b 993f 9559 0f3f be9a 0640 9a27 0ec0
00000310: e79d f8bf 724f d33f e232 373f 5cf5 11c0
00000320: b951 25be 0e6a 5c3f 518f 1ac0 f4c3 e1bf
00000330: 184c 61bf 10b5 4bbe 70b7 853e e91e 08bd
00000340: d104 2140 c825 8cbe 6891 86bf 8892 04bf
00000350: d6f1 9cbf eef9 85bf ab78 bcbf d19c d5bf
00000360: aa9b 47be ed50 d0be 372b 413f e1eb e0bf
00000370: ddd8 c4be fe02 2fbf 97ae bb3f 8963 33c0
00000380: bcf2 1a40 f5e3 0cbf 535a a9bf 7578 80bf
00000390: a227 c43f 525d ee3e c347 68bf fe9d 05c0
000003a0: 97ef d8bf 2010 8e3f fd09 f3bf 96da 843f
000003b0: 4344 10c0 c2ba 61bf 5027 c63e d3ed bb3f
000003c0: 3780 353c f3a8 0b3f 2d95 91bf b9c1 7d3f
000003d0: 147f 8d3f 63f0 d7be c2ef 96be b1ee f4bf
000003e0: 6fd0 0ec0 202b 26bf 9000 fc3e eb36 113f
000003f0: 649c 273f 2a7f 7fbf c064 76be 993a 683e

lstm.bias_hh_l0 f4 [320]
1.2902333 -1.7374743 0.681402 0.48696792 -2.023226 -0.2792429 0.6059103 -2.0286095
-1.3497846 1.5507836 -1.8175547 -1.5688494 -0.14126186 -0.21222875 1.13071 1.086337
-2.6173716 0.51023257 0.3437941 -0.6323387 -2.375881 0.3070047 -0.16475545 -2.0894704
-0.26934302 0.83025384 -0.4516199 -1.1234605 -1.2060597 1.0640764 0.42069343 -2.0842235
-0.28427672 2.4669597 0.7155068 -1.5724909 0.3360788 0.65207857 0.985284 0.71548104
-0.62070346 0.8680767 0.9476428 0.79167783 1.1957098 -1.4233261 -0.9354116 -1.8588574
-1.7822094 0.271835 1.8576833 0.56985426 -0.12205629 -1.1142054 -1.6399443 -1.5137134
-0.087702945 -0.20530787 -2.703984 -0.40114567 -1.2069709 0.41307065 1.2706734 2.0631692
0.730404 -0.26989082 -1.6819453 -0.0595351 0.9806366 1.6532155 1.3237243 0.23098442
1.5137194 1.2100706 1.890746 1.5468173 0.97209984 2.2110312 -0.83053416 -1.9975872
0.6247062 -1.9034841 0.058001883 -2.6665854 -0.71948725 0.84016293 1.0944062 -0.01656972
-1.9286461 1.6999449 0.091654286 1.3180751 -0.85583055 -1.4979794 -1.2372268 1.1326344
0.006389754 -1.445955 -0.70491314 -0.20495836 1.9783747 0.66985774 -1.060429 1.5311301
-1.3169183 -1.3931696 0.3997581 3.1063497 -2.702564 1.0001276 1.7892207 -1.6584473
-0.62658507 1.9530557 0.11272834 1.7559052 -1.2823851 -0.8824957 -1.7711198 1.4856908
-0.83100575 -0.22268648 0.7421025 -1.2235397 -1.8943516 -0.5009455 0.34987107 -0.5587217
-1.1314235 0.06423825 1.9374795 -1.2789165 -1.3112115 -0.3493332 1.8662915 1.0743276
-2.273645 0.42518553 -1.5952625 -1.7427979 -0.20432192 -1.3061777 1.1229814 1.6925224
-1.2965188 0.2631773 -1.8925277 0.57724154 0.693408 -1.4055916 -1.559067 1.5938427
0.44154584 -1.0839226 -0.70943284 0.22677459 -0.87606543 1.1582837 0.124913625 0.5615423
1.5589019 -1.6507968 -1.6589096 0.6860077 -0.37486124 -0.7363542 -1.2677429 1.2125536
0.3057379 -0.76329213 1.6525596 1.9414443 0.8453819 -0.62462157 1.4982859 -2.144762
1.1230189 1.6681398 -1.363953 -0.8770933 0.64107573 -1.3775787 -0.8106666 -1.7266839
-1.9888204 -0.37574103 -1.6985831 -0.4449817 0.7465449 -1.9004039 0.83359927 0.7699576
1.3003849 0.61480874 1.9154087 -2.2416987 -2.0259342 1.6202877 0.7336885 -2.192162
-0.17042457 0.9610537 -2.3193567 -1.7803687 -0.8949259 -0.35295188 0.24199246 -0.13649976
2.476014 -0.41416836 -1.0341768 -0.45874777 -1.2939278 -1.0135398 -1.5462803 -1.840986
-0.27081805 -0.36539608 0.6732634 -1.6406064 -0.3788308 -0.5982818 1.4920533 -2.9207134
2.593453 -0.702348 -1.4290078 -0.84153837 1.5127919 0.4397973 -0.8240859 -2.0673885
-1.6355364 1.0945153 -1.9482471 0.90167415 -2.1088033 -1.0033844 0.2979071 1.4758943
0.08989335 0.6658655 -1.1334853 1.059516 1.1336544 -0.5785161 -0.2570823 -1.872149
-2.1472297 -0.61959505 0.5589293 0.61757094 0.7042255 -1.1420637 -0.120834306 0.04812518
00000000: 5d26 a53f 8f65 debf 5d70 2e3f dc53 f93e
00000010: 897c 01c0 edf8 8ebe f01c 1b3f bdd4 01c0
00000020: bec5 acbf 1480 c63f a2a5 e8bf 0fd0 c8bf
00000030: f3a6 10be 7e52 59be 1bbb 903f 170d 8b3f
00000040: 0483 27c0 9a9e 023f c805 b03e f3e0 21bf
00000050: 6f0e 18c0 b82f 9d3e a7b5 28be e2b9 05c0
00000060: 54e7 89be 848b 543f b93a e7be 8ecd 8fbf
00000070: 2a60 9abf a833 883f 2165 d73e eb63 05c0
00000080: b88c 91be abe2 1d40 742b 373f 6247 c9bf
00000090: 8512 ac3e 9fee 263f 923b 7c3f c429 373f
000000a0: 6ce6 1ebf 463a 5e3f b898 723f 66ab 4a3f
000000b0: 050d 993f 8d2f b6bf 2277 6fbf 0aef edbf
000000c0: 701f e4bf f52d 8b3e 91c8 ed3f f8e1 113f
000000d0: a6f8 f9bd 489e 8ebf b2e9 d1bf 5cc1 c1bf
000000e0: 9a9d b3bd 3a3c 52be 130e 2dc0 f762 cdbe
000000f0: 067e 9abf ff7d d33e 6da5 a23f f70a 0440
00000100: c2fb 3a3f 212f 8abe fc49 d7bf 14db 73bd
00000110: 000b 7b3f 919c d33f cc6f a93f 2e87 6c3e
00000120: 8fc1 c13f 98e3 9a3f f703 f23f 1cfe c53f
00000130: 89db 783f 8981 0d40 e39d 54bf f0b0 ffbf
00000140: bfec 1f3f 5ea5 f3bf 6293 6d3d 56a9 2ac0
00000150: 5130 38bf eb14 573f 8115 8c3f 39bd 87bc
00000160: e0dd f6bf cb97 d93f 3eb5 bb3d afb6 a83f
00000170: b617 5bbf cabd bfbf 735d 9ebf 2afa 903f
00000180: 2461 d13b 0e15 b9bf 3075 34bf 9be0 51be
00000190: 623b fd3f cc7b 2b3f 23bc 87bf 12fc c33f
000001a0: c790 a8bf 6253 b2bf 18ad cc3e 6fce 4640
000001b0: cff6 2cc0 2e04 803f 2f05 e53f 0048 d4bf
000001c0: e167 20bf bbfd f93f 1ede e63d 80c1 e03f
000001d0: 3225 a4bf 3deb 61bf 0eb4 e2bf 1e2b be3f
000001e0: cbbc 54bf ed07 64be 6efa 3d3f f39c 9cbf
000001f0: 1d7a f2bf f73d 00bf 4d22 b33e 6308 0fbf
00000200: 7cd2 90bf 588f 833d 54ff f73f 89b3 a3bf
00000210: c7d5 a7bf cddb b2be a4e2 ee3f 9183 893f
00000220: 6683 11c0 ebb1 d93e 9031 ccbf 0014 dfbf
00000230: c439 51be d530 a7bf dbbd 8f3f 93a4 d83f
00000240: 54f4 a5bf 2dbf 863e 593e f2bf 1ac6 133f
00000250: 3083 313f 6dea b3bf 828f c7bf 0a03 cc3f
00000260: 4c12 e23e fabd 8abf 649d 35bf 9937 683e
00000270: d345 60bf a442 943f b7d2 ff3d 3cc1 0f3f
00000280: 198a c73f 4f4d d3bf 2657 d4bf 339e 2f3f
00000290: d0ed bfbe b581 3cbf 6645 a2bf f534 9b3f
000002a0: ae89 9c3e 1d67 43bf 1387 d33f 3f81 f83f
000002b0: f36a 583f 33e7 1fbf d5c7 bf3f c843 09c0
000002c0: 15bf 8f3f 9b85 d53f 0396 aebf 3089 60bf
000002d0: 8a1d 243f 8054 b0bf d987 4fbf fa03 ddbf
000002e0: ab91 febf 2161 c0be 2c6b d9bf a4d4 e3be
000002f0: 911d 3f3f 6f40 f3bf c366 553f f11b 453f
00000300: 0373 a63f 1b64 1d3f 1d2c f53f fe77 0fc0
00000310: e8a8 01c0 9665 cf3f 02d3 3b3f 624c 0cc0
00000320: c783 2ebe 9e07 763f 5770 14c0 1fe3 e3bf
00000330: dd19 65bf 1cb6 b4be dfcc 773e 98c6 0bbe
00000340: 0377 1e40 e00d d4be e85f 84bf fde0 eabe
00000350: 6d9f a5bf acbb 81bf 83ec c5bf 6ea5 ebbf
00000360: aaa8 8abe 3215 bbbe fd5a 2c3f 64ff d1bf
00000370: 1cf6 c1be ff28 19bf 9afb be3f f8ec 3ac0
00000380: 22fb 2540 14cd 33bf bae9 b6bf 0f6f 57bf
00000390: 2aa3 c13f 1d2d e13e 4bf7 52bf 1850 04c0
000003a0: 4259 d1bf 1419 8c3f 2960 f9bf 1ed4 663f
000003b0: a2f6 06c0 e66e 80bf 4887 983e 1bea bc3f
000003c0: 011a b83d 2976 2a3f 0c16 91bf 389e 873f
000003d0: 961b 913f a219 14bf 4ba0 83be 94a2 efbf
000003e0: 366c 09c0 c89d 1ebf fe15 0f3f 2119 1e3f
000003f0: 1f48 343f 252f 92bf fa77 f7bd e91e 453d

fc.weight f4 [1, 160]
-0.15555914 -1.6574283 -0.09709314 -0.01165447 -0.51404023 -0.27057475 0.0015833975 -0.7183284
-0.80944574 0.42322168 -0.058176804 -0.2589059 0.18423471 -0.6651483 0.111619376 0.5845283
0.5383651 -1.4537822 -0.06588484 -0.029703628 -0.036708683 -0.40944868 0.40037507 -1.0193158
0.58242875 -0.10895145 -0.0077614365 -0.4992958 -1.4693098 -0.13402838 -0.5703112 0.57344306
-0.5575779 -0.0892411 0.767421 -0.4279441 -0.052901004 -0.71779084 -0.3860057 0.08137505
-0.36137468 0.7063953 -0.8626746 0.41699708 -0.6743564 -0.30861986 0.3279768 -0.17415649
1.065767 -0.23754708 -0.5894104 -0.63905805 0.5992541 -0.10487563 0.37028298 0.2623832
-0.03443209 -0.6524015 1.3520815 -0.20552497 -0.33036068 0.49032474 -0.58217984 0.14154871
0.33167994 0.96499974 -0.5962438 0.19426894 -0.60941786 -0.052968 0.06012816 -0.22672412
-0.45073885 -0.13015491 -0.09323476 0.2130225 -0.10541887 -0.092003696 -0.62954384 -0.11968873
-0.2164336 -0.18074588 0.5394269 -0.40618688 0.42667595 -0.48198453 0.5349228 -0.94846296
-0.31552675 0.3732701 0.44121575 0.61771446 -0.09403248 -0.7706605 0.2109846 -0.14204997
-0.38023263 0.08911438 -0.07957597 -0.45593232 0.4752408 -1.3582118 -0.0054851985 0.43596822
0.34820965 0.27793926 -0.2522034 0.88646716 -0.01767059 0.17559592 -0.13673691 -0.36006087
-0.2444424 -0.13331282 -0.16962093 0.2823242 0.33609727 -0.30232877 0.58610046 -0.6850258
0.09615913 -0.05789922 -0.26457682 0.93004435 0.23230411 0.059749715 -0.09279098 0.5086439
0.5713195 -0.18824267 -0.41611758 -0.4579885 0.24470542 0.49980226 0.44130835 -0.21596625
-0.5283226 -0.53357655 0.08202036 0.13038623 -0.83004475 -0.11934037 -0.064760886 0.057680395
-0.39888218 0.58972526 -0.1834772 -0.023931768 -0.023465857 -0.030463174 -0.00026295334 0.04372913
-0.42832917 0.4996237 0.016621672 0.661415 0.57805085 0.17313237 -0.8137252 0.19330105
00000000: e54a 1fbe 9c26 d4bf c5d8 c6bd 64f2 3ebc
00000010: 2498 03bf c688 8abe 018a cf3a 5fe4 37bf
00000020: d637 4fbf 83b0 d83e cd4a 6ebd 508f 84be
00000030: 06a8 3c3e 2947 2abf b398 e43d a6a3 153f
00000040: 4cd2 093f 8915 babf a2ee 86bd 0655 f3bc
00000050: d85b 16bd 42a3 d1be f6fd cc3e f178 82bf
00000060: 0d1a 153f f021 dfbd a653 febb b3a3 ffbe
00000070: 5812 bcbf bc3e 09be eaff 11bf 2acd 123f
00000080: 6dbd 0ebf 0ac4 b6bd b475 443f 7d1b dbbe
00000090: b9ae 58bd 24c1 37bf 8aa2 c5be f6a7 a63d
000000a0: 1a06 b9be 53d6 343f 3ed8 5cbf a480 d53e
000000b0: 9fa2 2cbf 6c03 9ebe 93ec a73e 1456 32be
000000c0: 0e6b 883f 8b3f 73be 9ae3 16bf 4f99 23bf
000000d0: b768 193f 09c9 d6bd bb95 bd3e 1757 863e
000000e0: aa08 0dbd c903 27bf 0211 ad3f 2375 52be
000000f0: 0925 a9be d80b fb3e bd09 15bf 25f2 103e
00000100: f4d1 a93e 390a 773f 6fa3 18bf 70ee 463e
00000110: cf02 1cbf f9f4 58bd f248 763d 5e2a 68be
00000120: 3ec7 e6be 5447 05be def1 bebd 9222 5a3e
00000130: d9e5 d7bd 6f6c bcbd c929 21bf 5d1f f5bd
00000140: c5a0 5dbe 7315 39be e217 0a3f baf7 cfbe
00000150: 4575 da3e adc6 f6be b3f0 083f 78ce 72bf
00000160: b98c a1be 421d bf3e 08e7 e13e 8922 1e3f
00000170: 1a94 c0bd 024a 45bf 590c 583e 8c75 11be
00000180: daad c2be 9a81 b63d baf8 a2bd f66f e9be
00000190: c352 f33e e2d9 adbf 2ebd b3bb 3a37 df3e
000001a0: 8948 b23e 0e4e 8e3e ce20 81be 83ef 623f
000001b0: eac1 90bc 6bcf 333e c304 0cbe e659 b8be
000001c0: 1c4f 7abe 2883 08be 1cb1 2dbe cc8c 903e
000001d0: f114 ac3e d6ca 9abe ae0a 163f da5d 2fbf
000001e0: 14ef c43d bc27 6dbd 9d76 87be 6317 6e3f
000001f0: 21e1 6d3e 1ebc 743d 3309 bebd 7d36 023f
00000200: ff41 123f b0c2 40be 5d0d d5be 787d eabe
00000210: 0f94 7a3e 15e6 ff3e 2bf3 e13e 4226 5dbe
00000220: 2640 07bf 7998 08bf 4afa a73d f883 053e
00000230: d07d 54bf b968 f4bd 5ba1 84bd 4742 6c3d
00000240: 493a ccbe 3cf8 163f 72e1 3bbe 8e0c c4bc
00000250: 783b c0bc e88d f9bc 00dd 89b9 511d 333d
00000260: f64d dbbe adce ff3e 2c2a 883c 7e52 293f
00000270: 24fb 133f 9d49 313e 4b50 50bf b6f0 453e
