model_ending_1.pth (torch, 675153 bytes, 6 tensors)

embedding.weight f4 [9124, 15]
000000 0e 1a 11 3f 0b 1e 3f 3f e4 97 d4 3f cf 1b ae 3f
       0.5668038 0.74655217 1.6608853 1.3602237
000010 cf 20 bf be d2 25 2d be 02 10 53 bf 03 69 52 3e
       -0.37329718 -0.16908959 -0.824463 0.20547871
000020 aa 15 0f 40 69 15 aa bf e3 8b 56 bf 44 5f f2 3e
       2.2356973 -1.3287784 -0.838072 0.47338307
000030 68 0e 5e be cf a8 01 40 35 e5 4d 3f 00 00 00 00
       -0.21685183 2.0259283 0.8042787 0.0
000040 00 00 00 00 00 00 00 00 00 00 00 00 00 00 00 00
       0.0 0.0 0.0 0.0
000050 00 00 00 00 00 00 00 00 00 00 00 00 00 00 00 00
       0.0 0.0 0.0 0.0
000060 00 00 00 00 00 00 00 00 00 00 00 00 00 00 00 00
       0.0 0.0 0.0 0.0
000070 00 00 00 00 00 00 00 00 37 77 84 3e ca e7 45 bf
       0.0 0.0 0.25872204 -0.7730681
000080 55 44 1f 3f 2c 91 8f be c9 ab 83 bf 98 3c 66 3e
       0.6221364 -0.28040445 -1.02868 0.22484052
000090 3b 3b a1 bf 4d 28 12 40 a2 90 45 bc 93 f0 ad 3e
       -1.2596201 2.2837098 -0.012058409 0.33972606
0000a0 69 55 2d 3f 15 17 56 bf 9d af 00 bf e6 27 a6 3e
       0.6770845 -0.8362897 -0.50267965 0.32452315
0000b0 3b 5a f3 bd 48 51 ff 3f 61 d7 52 3e 7b 54 f3 bf
       -0.118824445 1.994668 0.20589973 -1.9010156
0000c0 d3 89 81 3e ad 2c be bf 06 b9 7b 3f 21 10 b7 bf
       0.25300464 -1.4857384 0.983292 -1.4301797
0000d0 99 a6 1c 3e f3 01 b7 3f 3f 11 5d 3f fb 3b 2f 3f
       0.15297927 1.429747 0.8635444 0.684509
0000e0 4c 17 e8 3e 9a ed 29 3f a4 75 0e 40 eb 72 4b 3f
       0.45330274 0.66378176 2.2259302 0.79472226
0000f0 de d0 08 3f 1e a0 eb be 0f fd ea 3f eb a5 01 be
       0.53443706 -0.46020597 1.8358477 -0.12660949
000100 a8 ee d1 3f 72 47 d7 3f 25 84 a1 be 74 02 56 3f
       1.6400957 1.6818678 -0.3154613 0.83597493
000110 29 9a 21 3f 9b e4 95 3f fd 75 0c be a4 42 c8 3f
       0.63125855 1.171039 -0.13716884 1.5645337
000120 d9 1c 9e 3e 65 56 58 3f 7f cf 0a 40 36 95 91 bf
       0.30881384 0.8450683 2.1689146 -1.137366
000130 c8 6d 7f bf 79 9d 90 3e 0b 27 73 bf b2 ed e2 3e
       -0.9977689 0.28245142 -0.9498145 0.44321972
000140 2d 23 58 3f e9 5c d2 3f bb 35 fb 3e 9f 96 05 bf
       0.84428674 1.6434604 0.4906443 -0.52182955
000150 de 8a 8e 3f 9c 7d b1 be 20 d4 8a 3f 03 b4 96 bf
       1.1136129 -0.34666145 1.0845985 -1.1773685
000160 31 aa 79 3f 66 65 d1 3f c3 2b eb bf 53 c9 30 bf
       0.97525316 1.6359069 -1.837273 -0.69057196
000170 38 eb 9e bf d9 a5 e8 3f fb 59 d6 be 3b b9 6f 3f
       -1.2415533 1.8175613 -0.41865525 0.93642014
000180 14 54 1f 3f 28 c6 bc bf ce 4b 41 bf 8b 69 6c 3e
       0.6223767 -1.4747972 -0.75506294 0.23087136
000190 28 ea be 3f e2 9a b7 bf 5e 01 67 3f 38 91 3b bd
       1.4915209 -1.4344141 0.9023646 -0.04579279
0001a0 3b 6f d0 3d f6 0c 2c 3f 37 ca 23 be 55 74 0d bf
       0.101774655 0.67207277 -0.15995108 -0.55255634
0001b0 ad ff 40 3f 39 ed ac 3d 47 b8 26 bd f1 0d 66 3e
       0.7539013 0.08443684 -0.040703084 0.22466256
0001c0 32 46 27 bf bd 17 93 be 43 e8 25 bf e5 bc db ba
       -0.65341485 -0.28729048 -0.6480753 -0.0016764669
0001d0 f2 29 dd be 8f ee d2 bf 8e d2 2a 40 d7 4c 3d 3f
       -0.43196064 -1.6479052 2.6691012 0.73945373
0001e0 60 54 98 bf c9 ed cd bf 09 91 00 40 de ce 08 be
       -1.1900749 -1.6088191 2.0088522 -0.13360164
0001f0 a2 28 87 be 8a a7 82 bf 39 8a a7 be 2c 70 bb 3f
       -0.26398188 -1.0207379 -0.32722643 1.4643607
000200 f9 84 bc 3f 03 e4 28 3f ce 19 c9 bf ac f0 75 3e
       1.472808 0.6597292 -1.5711 0.2401759
000210 11 58 26 bf d1 cd 89 3f f6 a8 0d 3f 2a 62 02 c0
       -0.6497813 1.0765935 0.5533594 -2.0372415
000220 24 72 93 3f 36 b4 8a 3e e2 ac 6b bf 46 8a 44 3f
       1.1519208 0.27090615 -0.92060673 0.7677349
000230 f4 a6 49 3f e6 7e 16 40 1b e7 08 c0 e0 87 e9 bf
       0.78770375 2.3514953 -2.1391056 -1.8244591
000240 86 44 58 bf f5 e6 ba bd 63 7f ee be 63 b0 95 bf
       -0.8447956 -0.09126083 -0.46581563 -1.1694454
000250 1f 96 20 bf d0 1c 07 3f af 64 a7 be 78 fd ad bf
       -0.62729067 0.5277834 -0.32694003 -1.3592978
000260 c4 76 ac 3e 2b b5 2a 3e 00 9d a0 bf 13 bf 29 3f
       0.3368436 0.16670673 -1.2547913 0.6630718
000270 3f ed ca 3e 87 63 af 3e f0 cc d2 bf 55 6f 76 3f
       0.3963413 0.3425562 -1.6468792 0.9626363
000280 7d a2 89 3f d3 de 9d bf a8 eb a7 3f 31 b3 a4 3f
       1.0752712 -1.2333626 1.3118792 1.2867185
000290 c1 83 3c bf 27 6b 58 bf 58 2b 31 bd a5 61 7b 3f
       -0.7363854 -0.845385 -0.043254226 0.9819587
0002a0 48 b0 4a bf b6 ed 96 3e ae 7b f6 bf ff 1a 5a bf
       -0.79175234 0.29478234 -1.9256494 -0.8519744
0002b0 12 f2 a1 bf e1 9c 15 40 50 85 55 be e4 c1 c4 bf
       -1.2651999 2.3377001 -0.20851636 -1.5371671
0002c0 5d b6 8e 3f 2d b9 b6 bf 75 3d 82 bf 13 7e 06 c0
       1.1149403 -1.4275261 -1.0175005 -2.101445
0002d0 8f 2f 66 3e fb e1 bc be a7 b3 c2 bf a0 e6 8d bf
       0.2247908 -0.3689116 -1.5211076 -1.1086006
0002e0 09 3e 39 3f 31 74 02 bc c4 46 c8 3e 69 81 2b bf
       0.72360283 -0.0079622725 0.3911649 -0.6699434
0002f0 46 41 0f bf 81 12 0c bf 2b 0f 03 c0 25 05 58 3f
       -0.55958974 -0.54715735 -2.0478008 0.8438285
000300 c2 81 ba bf e9 cc d3 3f 46 c9 0e 3f 3c 3f f7 3e
       -1.4570849 1.6546909 0.5577587 0.48290431
000310 8a 87 7c 3f d0 10 de be f0 2d b5 bf 3d 6e aa bf
       0.98644316 -0.43372202 -1.4154644 -1.3314892
000320 a7 2d e5 3f 7d f2 90 be bd 48 87 3e 2c c2 9a 3f
       1.7904557 -0.28310004 0.26422682 1.2090507
000330 2b 86 03 be 21 06 88 3f a9 3a 05 3f 4b 21 70 be
       -0.1284415 1.062687 0.52042633 -0.234502
000340 13 96 cf 3e 80 b3 d3 bf 2e f5 96 3f 1e d9 28 40
       0.40544185 -1.6539154 1.1793573 2.6382518
000350 ff 1e d6 3f a7 a1 24 bf 1a d2 0e 3e d7 48 da 3f
       1.6728209 -0.6430916 0.13947335 1.7053479
000360 2e 68 cd bf 1a c8 4f 3f 34 38 83 be 6c 59 47 3e
       -1.6047418 0.81164706 -0.25628817 0.19467705
000370 b6 53 3e 3f 29 af 17 3f f8 37 68 bf 73 79 81 be
       0.7434648 0.5925165 -0.907104 -0.2528797
000380 2f 9d 18 c0 32 16 f1 be ce fd 28 bf af 22 22 3f
       -2.3845937 -0.47087246 -0.66012275 0.6333417
000390 b6 55 5c 3f 93 f9 47 bf cd 95 1b 3f 61 b3 06 bf
       0.86068285 -0.78115195 0.6077545 -0.5261746
0003a0 00 ae 2c 3f 52 91 e0 bf 4c 13 25 bf ef 81 df 3f
       0.67453 -1.7544348 -0.6448257 1.7461528
0003b0 2a 3e f9 3e 93 0b b1 3e 0e 2d 2d bf 95 8e 6e 3f
       0.4868024 0.34579143 -0.67646873 0.9318631
0003c0 22 b2 8a bf a8 18 12 bf 12 e1 81 3c 23 5d 72 3f
       -1.0835612 -0.5706887 0.015854392 0.94673365
0003d0 53 ef d5 bf e0 96 b2 bf 5b 29 9f bf 22 72 c6 bf
       -1.6713661 -1.3952293 -1.2434496 -1.550358
0003e0 ee 8d 41 3e dc cd e4 bf d0 37 54 bf 1e 12 a0 3f
       0.18901798 -1.7875323 -0.82897663 1.2505529
0003f0 d4 c2 bc 3e 6d f7 9b 3f 6b 8d 0f be 67 2a 88 bf
       0.36867392 1.2184883 -0.1401879 -1.063794

lstm.weight_ih_l0 f4 [320, 15]
000000 13 22 1d 3e 37 d8 6a 3e da c8 5b bf a0 69 f0 bd
       0.1534503 0.22934042 -0.8585335 -0.11738896
000010 07 4e 0b 3f 0f 34 9b 3e 86 65 05 3e b0 cf 98 3e
       0.54415935 0.30313155 0.1302701 0.29845953
000020 f7 20 b7 3c bc ac b6 3d 4f ad 5b be 55 79 33 be
       0.022354586 0.08919665 -0.2145283 -0.17526753
000030 bb af f4 3d ef f8 bb bd a4 31 82 be 2b 95 02 3f
       0.119475804 -0.0917834 -0.25428498 0.5100886
000040 8e 5b 46 3e b1 a1 65 3e 35 bb 0f 3e 23 7c 04 3e
       0.19370863 0.22424962 0.14036258 0.1293798
000050 fc 90 f8 be 0f 6d a8 3e 91 47 23 3f 9e 4b e7 bc
       -0.48548114 0.32895705 0.63781077 -0.0282343
000060 9a f1 3e 3d 18 c3 99 bd 7f 3e fe be 99 c0 06 be
       0.046617128 -0.07507914 -0.49657056 -0.13159408
000070 35 02 00 bf d6 13 94 be 22 19 ae bd fb 86 ae be
       -0.5000337 -0.28921384 -0.085008875 -0.34087357
000080 94 e2 3c 3e 60 8b 4d 3e 54 72 50 3e dc 28 fe be
       0.18445808 0.20072699 0.20356113 -0.49640548
000090 01 ad 82 be 88 40 60 3e e2 76 70 3c b1 c3 a7 be
       -0.25522617 0.21899617 0.014676781 -0.32766488
0000a0 b2 11 6b 3e 4c 78 4c 3e ab 40 df be 2a 71 2e bd
       0.22955969 0.19967765 -0.43604025 -0.04258839
0000b0 a8 2d b5 3d 3f da 74 3d 8d 86 00 bd 89 fb 88 be
       0.08846599 0.05977845 -0.031378318 -0.26754406
0000c0 7b cc 2b be 22 62 15 bd 91 e0 d1 bc 02 8a c5 bd
       -0.16777222 -0.03647054 -0.025619777 -0.096454635
0000d0 40 5e 88 be 9e f7 ec 3c 9a 1b 93 3b b4 a0 1a 3e
       -0.26634407 0.028926667 0.0044893743 0.15100366
0000e0 4b 92 c0 be d6 52 18 3d 27 92 1e 3e ce b0 0a bd
       -0.37611613 0.037188374 0.1548544 -0.03386002
0000f0 e3 f5 2c 3f e5 c4 9a bd 15 08 99 bd ad 7b 05 be
       0.67562693 -0.07557086 -0.07472245 -0.1303546
000100 83 96 2a 3e b5 0d 97 bd 24 0a f1 3e 93 a9 0d be
       0.16658978 -0.07375661 0.4707805 -0.13834219
000110 bc 03 47 bd f6 8e aa be 21 db b7 be 36 4e 79 3e
       -0.048587546 -0.33312196 -0.3590937 0.24346241
000120 ec 76 f3 3d b7 0b 47 3e c8 10 25 be c9 3a 1b 3f
       0.11887917 0.19438063 -0.16119683 0.60636574
000130 0b c2 ff 3d 11 e8 05 3e da 82 3e bf d2 b1 74 3d
       0.12488183 0.13076808 -0.74418414 0.059739895
000140 76 5a 46 3e 21 d7 8d 3e 55 9d a9 be 51 09 78 3e
       0.19370446 0.27703193 -0.33127847 0.24222304
000150 75 7b cc bd 68 cf 1a be 51 c2 28 be fc a7 ce 3e
       -0.09984485 -0.15118182 -0.16480376 0.40362537
000160 b8 13 33 bf 1e fe 0e bf e6 02 40 bd c2 a5 e5 bd
       -0.69951963 -0.558565 -0.046877764 -0.112132564
000170 3f 7c 10 bd 22 cf eb bd ee 7a 72 bd 9a 7a bc bd
       -0.03527474 -0.11514117 -0.059199266 -0.09203072
000180 98 be a0 3c 8e 1e d5 bd 4d 64 12 3e 5a 3d 92 be
       0.019622132 -0.104062185 0.14296074 -0.28562433
000190 a9 75 07 be bc 2b 17 3d 2a c3 3f be f6 3c 44 be
       -0.13228478 0.036906943 -0.18726793 -0.1916388
0001a0 72 81 0b 3e a3 0a 12 3e 01 fe 38 bf 93 8d ce 3e
       0.13623598 0.1426187 -0.7226258 0.40342388
0001b0 93 d7 a4 be d2 8e 71 be f6 a7 3a 3e 74 a7 40 3e
       -0.3219572 -0.23589638 0.18228135 0.18813878
0001c0 b1 22 6a 3e a0 73 2a be 33 e3 8b be f6 c7 1e bd
       0.22864796 -0.1664567 -0.27321777 -0.038764916
0001d0 c2 d6 c4 be 62 c0 92 3e 47 78 49 3d 9f b9 60 be
       -0.38445097 0.286624 0.04918697 -0.21945809
0001e0 ec ba e7 3d 22 c8 5e be a6 61 f7 3c 7c d8 4a bd
       0.113149494 -0.21756032 0.03019793 -0.04952286
0001f0 30 1c 1d 3c 97 e9 9f 3e cb f3 dc 3d 84 9d b4 3e
       0.00958924 0.31232902 0.10788687 0.35276425
000200 14 a3 aa be b3 d0 1a 3f 69 7c 23 3f 9d f0 7d 3e
       -0.33327544 0.604747 0.6386171 0.24798818
000210 9b 2a 14 3e 42 b0 a9 3e 90 4a 27 3f f8 b5 d5 be
       0.14469378 0.33142287 0.6534815 -0.41740394
000220 fc 15 3b bd c3 02 91 bd b1 65 cd bd 20 4c cc 3d
       -0.045675263 -0.07080605 -0.10029162 0.09975457
000230 2e f4 8c 3e a9 68 6f be 0a f4 09 3e 3a 83 0b be
       0.27530044 -0.23379768 0.13472 -0.13624278
000240 18 b6 12 3e a4 cf 9f be 59 9c a2 3e 11 e4 2f 3e
       0.14327276 -0.31213105 0.3175991 0.17176844
000250 e7 08 9f 3e 3a df 92 3d 41 c0 15 bd 68 26 2f 3e
       0.3106148 0.07171483 -0.0365603 0.17104495
000260 78 8d c8 be 88 67 18 be 65 fc 2a be b8 17 20 be
       -0.39170432 -0.14883244 -0.16697843 -0.15634048
000270 ec 43 ca be 5d a1 ac 3e 19 b3 3c 3e 7c e2 38 be
       -0.39504945 0.3371686 0.18427695 -0.18055147
000280 d9 2b 3c 3e 76 5a 03 3e f7 21 00 be a3 94 d2 3e
       0.18376102 0.12827477 -0.12512957 0.41129026
000290 e6 2f a5 3e 6b 27 9c be 30 7e 97 3e 4c d9 8c be
       0.32263106 -0.30498824 0.2958846 -0.27509534
0002a0 7f 72 35 be 53 e9 98 3e f8 68 9e be e3 e1 54 be
       -0.17719458 0.29865512 -0.3093946 -0.20789294
0002b0 02 2b 21 bd ea 58 3a 3e 10 5e af be a0 ad e7 3b
       -0.039347656 0.1819798 -0.34251451 0.0070702583
0002c0 4f 55 79 be 94 13 93 3d d0 55 69 be 3c 3d b2 3c
       -0.24348949 0.071814686 -0.22786641 0.021757714
0002d0 a6 cb c6 3d 8b 08 5f 3d 90 34 99 bc 52 f5 8f 3e
       0.097068116 0.054451507 -0.018701822 0.28116852
0002e0 e8 be 0b 3f dd 66 42 3e 67 f3 1c be bc 3d 44 3e
       0.54588175 0.18984552 -0.15327226 0.19164175
0002f0 32 9a a9 be a9 17 25 bf 12 b3 59 be 6a dd 2b be
       -0.33125454 -0.6448923 -0.21259716 -0.16783682
000300 86 b8 2b 3e 12 42 cb bd cb 45 28 bf b0 4e 04 be
       0.16769609 -0.09924711 -0.65731496 -0.12920642
000310 4d d6 4e 3e 48 66 bc be e2 60 f4 bd e7 ab 19 3f
       0.20198937 -0.36796784 -0.119325414 0.6002793
000320 f2 74 16 3f b3 03 0c be 07 1a 46 be 8f 56 d4 bb
       0.58772194 -0.13673286 -0.19345866 -0.006480045
000330 af ca fc be c3 e4 d0 be ec d5 a4 be 42 a8 a3 bd
       -0.49373385 -0.4079953 -0.3219446 -0.07991077
000340 23 f6 07 be e0 4c 36 bd b8 13 e5 3e b4 db 8c bd
       -0.13277487 -0.044506907 0.44741607 -0.068778425
000350 81 ac ad 3d 02 a9 c8 bd 79 6a 62 3f a4 84 5c bd
       0.08480168 -0.09797861 0.88443714 -0.053837433
000360 5d 9b a1 3d 6d 65 a5 be dd 70 ad be ee a3 9b bc
       0.07890961 -0.32303944 -0.3387517 -0.018999066
000370 ad bf 3d bd 3d d7 bb be c4 ff 98 be bd 37 c2 bd
       -0.046325374 -0.3668765 -0.29882634 -0.094832875
000380 6c e6 20 3e 29 08 9d 3e b1 71 11 be 58 a3 a8 3d
       0.15712899 0.30670288 -0.14203526 0.0823428
000390 e2 da 31 3e 40 ef a0 3d 34 2a 8a bc 2c 21 01 bd
       0.17368653 0.07858133 -0.016865827 -0.031525776
0003a0 d1 65 ad be 28 50 81 3e 66 a7 aa be e9 7c 04 be
       -0.33866742 0.25256467 -0.3333084 -0.12938274
0003b0 0e 3e c4 bc bf a7 df be e5 6c 98 be 12 de 1c be
       -0.023955371 -0.43682668 -0.2977058 -0.15319088
0003c0 c8 12 c0 bc cf 05 8e bb 84 a9 b7 bd b2 42 d8 be
       -0.023446456 -0.0043341885 -0.089678794 -0.42238384
0003d0 a2 8b 04 bf 02 1c 38 bf 0e 2e 0e 3e 3c 9d 72 be
       -0.5177556 -0.71917737 0.13884756 -0.23692793
0003e0 c7 f3 07 be 81 4b 19 3f bf 52 68 be c5 60 38 3e
       -0.13276587 0.59880835 -0.22687815 0.18005665
0003f0 6e c7 9c 3e 44 e1 10 3f db c4 25 bf 9c b3 cb be
       0.30620903 0.5659373 -0.647535 -0.3978547

lstm.weight_hh_l0 f4 [320, 80]
000000 79 1d a9 3e e7 71 f5 3d dc d7 40 be e6 2c be bd
       0.33030298 0.11984616 -0.18832344 -0.092859074
000010 f2 0e 9c 3d d3 63 a7 be d5 d0 43 be 3d dc 14 3d
       0.07620038 -0.32693347 -0.19122632 0.036342848
000020 9f ce 47 be 18 0b a5 be 30 cc d8 3d 09 36 88 be
       -0.19512413 -0.32235026 0.10585821 -0.26603726
000030 0e 01 df 3d bd 11 d2 be 47 d5 18 3f 73 2e 8b be
       0.10888873 -0.41029158 0.59700435 -0.27183875
000040 60 2b 0b 3e 60 7a 1c 3e 27 fd 81 be ff ad 95 3e
       0.13590765 0.15281057 -0.25388452 0.2923431
000050 f2 76 8f be f1 4f 66 3e d0 d5 79 3e d6 ae 02 3f
       -0.28020436 0.22491433 0.24397969 0.5104803
000060 d1 52 bd be 3f 7a 12 be 6b ad e0 be a8 c6 ac bd
       -0.36977246 -0.14304446 -0.43882307 -0.08436328
000070 1d 46 62 3f 41 31 46 be 08 e5 a5 3e b8 d8 bf bd
       0.88388234 -0.19354726 0.324013 -0.09367508
000080 e3 91 40 be dd 01 52 3e 52 02 84 bb 8b f2 18 3e
       -0.18805651 0.20508523 -0.004028597 0.14936273
000090 ba a2 4a be 87 d8 71 3e a4 59 20 be 22 df 74 3e
       -0.19788638 0.23617755 -0.15659195 0.23913243
0000a0 0e a9 f0 bd 5e 4d 4e 3e a8 de 9a be 1a 90 63 be
       -0.117509946 0.201467 -0.30247998 -0.22222939
0000b0 9f df 1d bd 19 9f bb bd 62 49 43 be 35 ee 6e 3e
       -0.03854334 -0.09161205 -0.19070962 0.23333056
0000c0 44 af 35 3e 8d 96 24 3e cd 08 5d bd 73 3b 4a 3e
       0.1774264 0.16073056 -0.05396347 0.1974924
0000d0 3d 3b ca be d6 a8 be 3d 57 d3 8c 3e 6a ac ab 3d
       -0.3949832 0.09309547 0.2750499 0.08382495
0000e0 e0 5a f9 bd 23 42 99 be 2a 72 d6 bd a3 7f 03 3e
       -0.12175536 -0.2993327 -0.10470994 0.12841658
0000f0 20 36 b8 3e b9 77 67 be 47 57 81 3e 96 ea 37 be
       0.35978794 -0.22604264 0.252619 -0.17960581
000100 1b 62 93 be 71 95 da be f1 b5 2b 3d 7e 11 7b bd
       -0.28785786 -0.4269214 0.04192156 -0.06129598
000110 88 1d 3f 3d 1e 25 91 be 30 a2 02 bf 93 de 5f be
       0.046659023 -0.2834863 -0.5102873 -0.21862249
000120 fd 17 66 3d e2 7e 88 be 67 54 01 be 6b e4 27 be
       0.05617522 -0.26659304 -0.12629853 -0.16395728
000130 0c 31 03 be 90 cf b9 3b ed 90 eb 3d 8d e4 4d be
       -0.12811679 0.0056704953 0.11502252 -0.20106716
000140 5e 8a 47 bd a5 fb d1 bc 06 6e 2f bd aa 32 37 bd
       -0.04871594 -0.025632689 -0.042829536 -0.04472605
000150 d2 db 80 3d 21 e8 2e 3e b8 4f d3 bd 9a 7b f7 bb
       0.062919274 0.17080738 -0.103179395 -0.0075525763
000160 90 65 99 be ef 61 11 3f d4 01 d3 bc 5d 40 0f be
       -0.299603 0.5679006 -0.025757708 -0.13989396
000170 84 56 a6 3e 14 3e 1e 3e 82 c8 6e be 33 4d e9 3d
       0.3248788 0.15453368 -0.23318675 0.11391678
000180 c8 be 2c 3d d1 77 20 3d 8e 89 90 bd 67 5e 63 be
       0.04217413 0.039176766 -0.070574865 -0.2220398
000190 a4 4e 8f be 30 b9 1f be 80 2b 8c be 6d 41 98 3d
       -0.27989686 -0.15597987 -0.27376938 0.07434354
0001a0 00 f5 4c b9 9f de 51 be 1f 0a ea 3e 6a f9 8a bd
       -0.00019546226 -0.2049508 0.45710847 -0.06785853
0001b0 bd 7d b1 be bd a1 34 be 68 c5 d2 bb 23 2f 17 3e
       -0.34666243 -0.17639823 -0.006432224 0.14764075
0001c0 c2 88 8c be 04 3f df 3d 95 2e 5e bd 0c 27 1b bd
       -0.27448088 0.10900691 -0.054243643 -0.037879035
0001d0 e5 94 6d 3d 15 ec 90 bb 38 da c5 3e cf ad 19 3f
       0.058003325 -0.0044226744 0.3864305 0.60030836
0001e0 a9 44 2b be 72 2d 0f bd cc 30 89 3c df 2a 1d 3c
       -0.1672541 -0.03495545 0.016746901 0.009592741
0001f0 5f f9 a5 bd 26 12 10 bd a6 a5 3b be 8f 7f eb 3d
       -0.081042044 -0.035173558 -0.18324909 0.11498939
000200 0d 00 1c 3e 37 34 4b 3e c6 26 5c be 0a df 7e 3d
       0.15234394 0.19844137 -0.21499166 0.062224425
000210 66 2f d1 3d f5 6f 40 be 92 d6 1c 3d 27 c9 4d 3e
       0.10214119 -0.18792708 0.038290568 0.20096265
000220 00 49 9f 3d 41 b6 fc 3d b8 36 0e bd 9b c3 38 bd
       0.077775955 0.1233945 -0.034720153 -0.04510842
000230 d3 9c 32 3e ad 2d 9d 3e 2c d0 a2 3a c6 4d 2f be
       0.17442636 0.3069891 0.0012421659 -0.17119512
000240 e5 11 ac bb 81 e7 ae bc 58 66 d2 3c 99 bb cd bd
       -0.0052511566 -0.021350624 0.025683567 -0.10045547
000250 35 b7 98 be 40 e6 b1 bd 66 55 72 3e de 92 59 bd
       -0.29827276 -0.08686495 0.2366539 -0.05311858
000260 0b 81 67 3e 9b 57 30 3e f8 a3 2b be 20 42 a2 bd
       0.2260782 0.17220919 -0.16761768 -0.079227686
000270 e4 d1 f1 3b cc ab af bd f8 ac 28 be 85 00 45 3d
       0.0073797572 -0.085776895 -0.16472232 0.0480962
000280 e7 92 81 3c bd ed fa bd 77 e2 80 be f5 f7 6c bd
       0.015817119 -0.12252376 -0.2517278 -0.057853658
000290 16 e7 ad bd 40 25 0b bf c1 d7 93 bd 86 a9 12 3e
       -0.08491342 -0.54353714 -0.07218886 0.1432248
0002a0 6f fb 87 3d ef da 02 3f cd 75 89 3c e2 56 78 3d
       0.06639754 0.51115316 0.016779805 0.060629733
0002b0 9e 5a fb be 66 24 3b be 14 36 be 3d 2f ad 98 bd
       -0.49092573 -0.18275604 0.09287658 -0.07454907
0002c0 e9 85 b2 be 12 42 01 3e b2 84 ce 3c 67 db da bb
       -0.3486779 0.1262286 0.025209758 -0.006678987
0002d0 db cc d5 be f6 46 37 3e 1b cf ee 3e c5 a2 19 be
       -0.41757855 0.17898163 0.46642384 -0.15003498
0002e0 10 9e 20 be a1 9c 87 3d 70 04 fe bd 7e 80 c0 bd
       -0.15685296 0.066216715 -0.1240319 -0.09399508
0002f0 57 16 3e 3f ef a0 9b 3c 60 36 d6 3c 86 1d 9f bc
       0.7425284 0.018997638 0.026148975 -0.019423258
000300 e0 e3 ec bd 19 78 05 3d 28 84 04 3e af 2a 38 3e
       -0.11566901 0.032585237 0.12941039 0.17985032
000310 cc b8 21 bd 43 b2 39 3c 0c 04 93 be 8e b7 82 be
       -0.039482877 0.011334005 -0.28714025 -0.25530666
000320 05 c4 e4 3d 7c 2b d3 3b 43 01 8c 3d 28 5e fa 3d
       0.111702 0.0064443927 0.06836178 0.1222499
000330 50 e8 5f bd b7 53 9c bd b2 f1 f6 3d 3a 84 0f 3e
       -0.05466491 -0.07633155 0.120578185 0.14015284
000340 c7 27 d6 bd a0 38 35 bd b9 b1 f2 bc 5c 41 99 3d
       -0.10456806 -0.044243455 -0.02962576 0.074831694
000350 c2 00 35 bc a7 07 18 3d 43 2c 24 3c 82 c0 84 3d
       -0.011047544 0.037116673 0.010020318 0.064820305
000360 88 f7 9b bb 9c 50 27 3e 64 1a 90 bd 89 b2 c9 3d
       -0.0047597326 0.16339344 -0.070362836 0.09848506
000370 72 c4 da 3d c4 a3 9f 3e a9 52 d4 3d 5b 09 34 bd
       0.10682 0.3117963 0.10367329 -0.043954235
000380 30 c9 d6 bc 87 7b eb bc d8 c9 8f 3c 8a c7 8a 3d
       -0.02621898 -0.028745426 0.017552301 0.0677634
000390 c5 41 60 be b2 cb 39 be af ea 9e bc c3 b1 20 be
       -0.21900089 -0.1814411 -0.019399015 -0.1569281
0003a0 05 74 b1 3d 7a 40 a6 3e 9c c3 fe bd e5 18 68 bd
       0.08664707 0.32471067 -0.12439653 -0.056664366
0003b0 2b 8b a0 bc 2c 71 5f bd 38 31 2f 3e 97 ad de 3e
       -0.01959761 -0.05455129 0.17108619 0.43491814
0003c0 59 9f 25 bd 7b c7 2c 3e e9 12 43 bd de 70 0e be
       -0.04043517 0.16872971 -0.047625456 -0.13910243
0003d0 d4 82 f5 3d a6 69 17 bb d8 d4 49 be 36 c9 de bd
       0.11987844 -0.0023103743 -0.197101 -0.10878222
0003e0 e7 3f 76 be 67 d5 a4 3b 4b 93 71 3e 77 7a 22 bd
       -0.24047814 0.0050303224 0.23591344 -0.039667573
0003f0 98 20 d5 3d 63 f2 48 be d4 eb 17 3e db 42 09 bd
       0.104066074 -0.19623713 0.14836055 -0.033511024

lstm.bias_ih_l0 f4 [320]
000000 d4 a6 84 3c 02 7f fb bd 9e 1e 35 bd b1 b7 2c be
       0.016192831 -0.12280084 -0.044218652 -0.16866948
000010 54 62 ff bd 0c 95 6b bd 49 9f c0 bd 0c a6 b4 3d
       -0.124699265 -0.05751519 -0.09405381 0.088207334
000020 5f 57 db 3d da 0c 64 be 36 bf 13 3e 6b 52 82 3c
       0.10710024 -0.22270527 0.1442841 0.01590844
000030 52 01 9c be a3 cd 56 be e2 65 7d bd 02 b2 8c be
       -0.30469757 -0.20976882 -0.06186474 -0.2747956
000040 49 55 91 3d b0 b5 16 bb 01 53 1f 3d ef 37 0b 3d
       0.07096345 -0.0022996478 0.038897518 0.03398889
000050 41 c4 09 be f6 5c 2c 3d 2a 3a b2 bc 6a 41 4e be
       -0.13453771 0.042080842 -0.02175625 -0.20142141
000060 49 3e 65 3c 27 6a 16 3e 11 46 5f be 9e 86 d5 bd
       0.013991901 0.14688931 -0.21804072 -0.10426067
000070 66 da c3 bc 6b 48 a1 3b 29 ab ac bc 5b a7 e2 bd
       -0.023907851 0.004921963 -0.02107771 -0.11067077
000080 44 c0 25 be cb 51 99 3d 8c 57 9d bd 64 81 f3 3a
       -0.16186625 0.07486304 -0.07682714 0.001857799
000090 d9 38 d9 bd a6 b0 11 be d3 ec f7 bc 45 dc 5c be
       -0.10606546 -0.14227542 -0.030264294 -0.21568401
0000a0 f8 0f d8 3d 2f 7b da 3c 4a e3 19 be 78 fe c2 bd
       0.10549921 0.026670067 -0.1502811 -0.09521192
0000b0 ea 70 4f bb 04 13 e1 bd aa 3c fb bd 40 0d 41 3d
       -0.0031652995 -0.10989955 -0.1226743 0.047131777
0000c0 2b 59 32 3e a7 e9 aa 3d 99 18 ce 3c a5 a4 91 3e
       0.17416827 0.08345347 0.025158213 0.28445926
0000d0 07 3e 4d be d6 71 45 3e c0 22 eb bd 9b c4 97 3e
       -0.20043193 0.19281706 -0.114812374 0.29642186
0000e0 55 2a 28 be c8 fd 2e 3e 3f 82 c4 3d ec 2e 86 bd
       -0.16422398 0.17088997 0.09595155 -0.065519184
0000f0 c7 18 fb bd 92 d4 9a be 76 6e 05 3d 33 9d 21 3d
       -0.12260585 -0.30240303 0.032576047 0.039456557
000100 e0 47 a6 3d 86 b4 ad bd 23 f8 86 3d 94 58 35 3d
       0.08119178 -0.08481698 0.06590297 0.044273928
000110 b9 f2 48 be f0 3b e0 3d b3 29 07 be 8d cd ab bd
       -0.19623841 0.10948932 -0.131995 -0.08388815
000120 a1 9b 5e be b0 f2 05 bc 84 ff 3e bb be 2e 52 3e
       -0.21739055 -0.008175537 -0.0029143998 0.20525643
000130 f0 43 1e 3e 08 6c 6c be ea a2 93 be d4 9b ec be
       0.15455604 -0.23088086 -0.2883523 -0.46212637
000140 a1 df c1 be 44 43 b3 bd 57 60 a4 bd 64 fb a7 bd
       -0.37865928 -0.08753064 -0.08026188 -0.08202246
000150 dd f7 ed bd 26 11 a7 be 42 1c c9 3c 9b 51 9d bc
       -0.11619542 -0.3263027 0.024549607 -0.019203952
000160 40 b5 24 3e 22 63 ce bd 22 f5 03 3e df d3 9c 3d
       0.16084766 -0.10077502 0.1288648 0.07657599
000170 48 99 0f 3f dc a6 ec bd 98 d5 1a 3e 6b 3d 97 bd
       0.56093264 -0.115552634 0.15120542 -0.073847614
000180 08 bb 4a 3d 0a dd 02 3c 67 10 54 bd d0 4b bd 3d
       0.049494773 0.00798727 -0.051773455 0.09242976
000190 af b4 79 be eb 88 4f bc ae b9 3c 3d 28 a1 26 be
       -0.24385332 -0.012666921 0.046075515 -0.16272414
0001a0 82 65 09 3e d6 22 30 3e 8a de 7a bc 7d a3 02 3c
       0.13417628 0.17200789 -0.0153118465 0.007973549
0001b0 72 1a ae bd 62 e3 c2 bd e7 20 9b bd d7 9f 83 bc
       -0.08501138 -0.09516026 -0.07574635 -0.016067429
0001c0 c2 1a f9 bd f8 a8 1e 3e 0a f7 b7 bd 6d 13 31 bd
       -0.12163307 0.15494144 -0.08982666 -0.043231416
0001d0 c7 06 87 bd ec a2 06 bd 41 86 64 be 8d 50 9e be
       -0.065930896 -0.03287022 -0.22316839 -0.3092083
0001e0 b6 96 cb bb ac a9 10 3c 35 e8 24 be 8f 64 a5 bd
       -0.0062130345 0.008829515 -0.16104205 -0.08075821
0001f0 67 c0 70 bd d8 1e 8c 3d 78 87 fc 3e 32 6b 4b 3d
       -0.05877724 0.068418205 0.49322104 0.049662776
000200 14 fa 3a 3e 65 d5 1b 3e 38 76 0d 3c d3 13 9f 3e
       0.1825946 0.15218122 0.008634143 0.31069812
000210 10 9d 5d bd d6 de 88 3e bc 95 e8 bd b2 cf a7 3e
       -0.054104865 0.2673251 -0.113566846 0.32775646
000220 26 07 b1 bd f8 71 67 be b4 69 b5 3d 2e 02 45 bc
       -0.086439416 -0.2260207 0.08858052 -0.012024445
000230 ba 55 0e 3e b0 dc 24 be 9e 5c a0 bd 90 79 d2 bd
       0.1389989 -0.1609981 -0.07830165 -0.102770925
000240 b5 af 6b 3e 28 63 98 b9 c2 00 16 be c7 24 0d bd
       0.23016246 -0.00029065576 -0.14648727 -0.0344589
000250 76 7a ba bd 65 c5 1a bd b3 6d 6c bd 85 cc db bd
       -0.09105389 -0.037785906 -0.057721805 -0.107323684
000260 e1 fa 03 be 6a a0 6e 3d 21 10 a1 3b c4 b7 94 bd
       -0.12888671 0.05825845 0.004915253 -0.07261613
000270 74 10 74 3e 3e 96 3b be 0a 4d b5 bd 1a 6d 0e 3f
       0.23834401 -0.18319032 -0.08852585 0.55635226
000280 4e 96 34 bc 3f a1 d1 bd 26 ff 96 3d e7 05 0f 3d
       -0.011022164 -0.102358334 0.073728845 0.03491774
000290 97 04 76 bd 9e 12 80 3d 6f dc 21 3e c8 36 b0 3d
       -0.06006297 0.06253551 0.15806745 0.08604199
0002a0 6c 71 34 3e 6e ca 90 bc ac a3 17 be 65 5c ce 3d
       0.17621392 -0.017674651 -0.1480853 0.100762166
0002b0 b8 52 00 3e 69 c2 16 3e 41 0d 86 bd d5 43 4d 3d
       0.12531555 0.14722599 -0.06545497 0.050113518
0002c0 d8 b7 16 be 23 aa 18 be de cf 32 3e 9e 3b 47 3e
       -0.14718568 -0.14908652 0.17462108 0.19456336
0002d0 23 62 f4 bd 43 5a 97 3d 10 c5 53 be ee 35 a9 3d
       -0.119327806 0.07390263 -0.20680642 0.082622394
0002e0 e9 54 4d 3d 87 d2 c4 3d 17 19 6b bc f5 0e 21 3e
       0.050129805 0.096104674 -0.014349244 0.15728362
0002f0 6b 34 4e bd 78 c5 ce 3d 74 29 b2 bd a7 ac a5 bd
       -0.05034296 0.10096258 -0.08699313 -0.080895714
000300 d4 99 86 bd 63 06 b2 bd 11 c0 1a 3d 8a f6 ad bd
       -0.06572309 -0.086926244 0.037780825 -0.08494289
000310 ac 49 55 be cb 7b aa bd 3b 5a 54 bd b1 e0 48 bd
       -0.20828885 -0.08324393 -0.051843863 -0.049042407
000320 c2 f6 d9 3d a2 c7 fb bd 5e e6 39 3e 30 ea d4 3d
       0.106427684 -0.12293936 0.18154284 0.1039623
000330 93 8a b7 3d a0 65 2b 3e b7 50 11 3e 5e bc 5c be
       0.08961978 0.16737986 0.14190947 -0.21556231
000340 d8 1f 22 be ce e7 1d be 10 4b 00 3e a4 a7 80 be
       -0.1583246 -0.15420458 0.12528634 -0.251279
000350 e5 27 0b 3e 05 2d 2a 3d b5 f2 be bc 04 6d 74 be
       0.13589437 0.04154684 -0.023309091 -0.23869711
000360 34 0e f4 bd 28 93 ea 3d 40 ea 28 3e eb f4 79 be
       -0.119167715 0.11453849 0.1649561 -0.24409835
000370 a0 a1 b7 bb 2a e8 bb bc cb 8d c3 bc a4 09 cb 3d
       -0.005603984 -0.022937853 -0.023871323 0.09913948
000380 3f a4 36 3e 01 cd c3 bc 69 40 4b be 80 87 1b 3e
       0.17836092 -0.023901464 -0.1984879 0.15188408
000390 e0 fa 1e 3e 7c cd 33 3c a8 77 2a 3e 73 bb e4 3d
       0.15525389 0.010974284 0.16647208 0.111685656
0003a0 59 a4 d6 3a 63 ee b4 bd d2 e0 ef 3d e0 e7 74 3e
       0.0016375884 -0.08834531 0.11712803 0.23916578
0003b0 08 39 3f 3e aa 28 21 3a f4 cc 0b 3e e0 2e 48 bd
       0.186741 0.0006147722 0.13652402 -0.04887283
0003c0 ec f9 49 be 68 23 a7 bd 8c 7a 9e bd 29 61 9f be
       -0.19724244 -0.0816105 -0.07738218 -0.31128815
0003d0 c1 2e da bc 8a 68 9e bd dc 02 41 be 9d bd f2 bd
       -0.026633622 -0.07734783 -0.18848747 -0.11852572
0003e0 4c 74 11 bb 5f 42 8a be 95 39 97 bd d3 bd 51 be
       -0.0022194562 -0.27003762 -0.0738403 -0.20482568
0003f0 0e 9d 92 3e df 1f 02 be 79 16 1d 3d 3a 4a 6e be
       0.28635448 -0.1270747 0.03835151 -0.23270503

lstm.bias_hh_l0 f4 [320]
000000 a6 8c 85 bd 87 22 12 bd 6c 56 68 bd 3e b2 6a be
       -0.06520967 -0.03567746 -0.056723043 -0.22919556
000010 bf c1 3a 3c cb 7b 0b be 89 e6 fa bd 4c 28 b9 3d
       0.011398732 -0.13621442 -0.12251002 0.09040889
000020 07 8e b0 3d 06 57 6a be ac 73 3c 3c 90 85 43 be
       0.086208396 -0.2288476 0.011502188 -0.19093919
000030 52 a7 77 be e9 2b 1b be b6 e9 1e bc 0f 39 87 be
       -0.24184921 -0.15153469 -0.009699276 -0.2641072
000040 bd 2a c8 3d 53 9b 70 bc 51 00 ad 3d 57 14 ff 3d
       0.09773777 -0.01468547 0.08447326 0.124550514
000050 90 b8 d5 ba 77 ea 57 3d 5e e3 02 bc 2d 69 a8 be
       -0.0016305614 0.052713837 -0.007988779 -0.32892743
000060 ac 5b 32 be c5 fb 99 3d 69 33 0b be b9 6d 2a bb
       -0.17417783 0.07518724 -0.1359383 -0.0026005341
000070 22 26 d3 bd cd 2a 4b 3b 99 88 71 bd dd 75 0c be
       -0.10310008 0.0031000853 -0.05896816 -0.13716836
000080 23 e0 13 be d8 4f 4c 3e 0b cf d1 3b 38 54 ba bc
       -0.1444097 0.19952333 0.0064028553 -0.022745237
000090 3b ed 8e bd a9 5a dc bd 40 e8 60 be 77 17 b0 be
       -0.06978842 -0.107594796 -0.21963596 -0.34392902
0000a0 a8 4b 99 3d 60 d9 4a b9 02 f8 40 be e2 82 82 bd
       0.074851334 -0.000193452 -0.18844607 -0.0637262
0000b0 02 0d 4f bd d0 91 50 bd c8 a3 20 bd 73 fd ab 3d
       -0.050549515 -0.050920308 -0.039218694 0.08397951
0000c0 28 87 82 3e 1e 05 01 3e 77 e2 d0 bd 02 5a 84 3e
       0.2549374 0.12599608 -0.10199445 0.2584992
0000d0 ff 11 02 be 99 6e c8 3d c6 3d 3e bd 3d db 5d 3e
       -0.12702177 0.0978672 -0.04644563 0.21665664
0000e0 be d9 b8 bd 6c df af 3d 5e ed f0 3d 1c 53 7a 3c
       -0.09025906 0.08587536 0.11764024 0.015278604
0000f0 a4 aa 85 3d 84 45 ea be 92 3e 5f 3d 05 c8 ce bc
       0.06526688 -0.4575616 0.05450303 -0.025241861
000100 8e 57 4d 3e ee 9a 01 bd ae 59 f6 3c 30 8f 8c 3d
       0.2005293 -0.031641893 0.03007206 0.06863248
000110 85 cc 2f be 01 ee d8 3d a0 36 64 be 3f e9 46 bd
       -0.17167862 0.10592271 -0.22286463 -0.048562285
000120 24 c6 87 be ce 1f 4f bd 5a de cb bd 6b 9e 44 3e
       -0.26518357 -0.05056744 -0.099545196 0.19201057
000130 3e 0b 8f 3e e8 3c 62 be bc 79 7d be cd 05 c5 be
       0.27938265 -0.22093546 -0.24753469 -0.38480988
000140 bb 25 87 be d6 f9 82 3d 38 e3 3e 3d 64 fc 2d be
       -0.26395974 0.06395309 0.04660341 -0.1699081
000150 49 79 3c bd 9c 27 01 bf e8 e7 af bc f3 1c 1d 3e
       -0.046014104 -0.50451064 -0.021472886 0.15343075
000160 45 86 8b 3e f3 35 2d be 59 98 3d 3e 5d 8e 43 3d
       0.27250877 -0.16915111 0.18515147 0.04774319
000170 50 1c 0e 3f 7a 8e b6 bb 2a fd 59 3e 54 cf b3 bd
       0.5551195 -0.0055711837 0.2128798 -0.08779779
000180 e9 3e 56 bd 3e a7 a8 3c 29 7b b7 bb 57 7a 0f 3e
       -0.05230609 0.02058756 -0.0055993986 0.14011513
000190 59 9e af bd 7f 5d cb 3d a7 63 08 be e4 9b 27 be
       -0.08575124 0.09929942 -0.13319264 -0.16368061
0001a0 cd e8 2a 3d 67 da fe 3d 7a b0 73 3d d1 57 72 3c
       0.041725922 0.12444001 0.059494473 0.014791445
0001b0 51 79 c7 bd e4 86 0e be 2d d7 70 3d cf 3d 55 bd
       -0.09739936 -0.13918644 0.058798958 -0.0520609
0001c0 8c ee 85 3d c0 8c 7d 3d 11 ff 85 bc 67 7a e6 bd
       0.0653964 0.061901808 -0.016356977 -0.11253815
0001d0 d4 46 c2 3d af 18 85 3d 6f 42 67 be b1 c9 bf be
       0.09486166 0.06498849 -0.22583936 -0.37458566
0001e0 dd 18 63 3d 03 bd 2e bc 98 27 3f bd b8 2b 90 bc
       0.055443633 -0.010665181 -0.04666862 -0.017598972
0001f0 ca c4 fd bc 19 d6 e7 bd cd d7 d0 3e 0d 43 ca 3d
       -0.030977625 -0.11320133 0.40789643 0.0987607
000200 1b 0a 44 3e 4e 46 6a 3e 15 70 f6 3c 60 c5 a3 3e
       0.1914448 0.22878382 0.030082742 0.31986523
000210 0e 20 3d 3d 67 34 f2 3e 3b 2c 1b 3d 91 d2 2c 3e
       0.046173148 0.47305605 0.03788398 0.168772
000220 b0 8d f0 b9 b3 12 35 be 68 4f 56 3e 78 9f 2d bd
       -0.00045881933 -0.17682914 0.20928729 -0.04238841
000230 2a d9 46 3d ec de 07 be b8 0e 9e bc 68 94 1a be
       0.048546948 -0.13268632 -0.019294128 -0.15095675
000240 19 c0 32 3e 66 46 37 bd 12 6e 3c bd 10 d0 9f bd
       0.17456092 -0.04474487 -0.04600341 -0.07803357
000250 49 38 11 be 5e d9 0c be 98 ac 0d be aa 2a cb 3d
       -0.14181627 -0.13754794 -0.1383537 0.09920247
000260 dd e1 0a be 21 53 93 bd 3a e9 4d be 65 7f fb bc
       -0.13562723 -0.0719359 -0.201085 -0.030700395
000270 6b 21 36 3e d9 cc 6f be bf 7d a5 3c c8 be 05 3f
       0.17786185 -0.23417987 0.020201562 0.52244234
000280 c5 fd cc bd b7 5b 1a be fb f5 fa 3d 07 a7 27 bd
       -0.1000934 -0.15074049 0.12253948 -0.040930774
000290 f8 54 01 be 14 8c 7a bc f5 bf 0a 3e 1a f9 58 3e
       -0.1263007 -0.015292186 0.13549788 0.21188775
0002a0 38 49 58 3e ed f3 69 3d df e6 74 be 24 cd b9 3d
       0.2112168 0.05711739 -0.23916195 0.090723306
0002b0 34 19 0d 3e d8 a4 01 3c 60 a0 00 be 13 58 3b 3d
       0.13779145 0.007912837 -0.12561178 0.04573829
0002c0 36 22 eb bd 63 89 5e be 83 1a 44 3d 26 3a 2c 3e
       -0.114811346 -0.21732096 0.047876846 0.16819057
0002d0 c0 6d 13 3d 55 c5 67 3e a8 06 31 be 32 13 c1 3d
       0.035993338 0.2263387 -0.17287695 0.09427489
0002e0 fd 58 58 3e 0b 79 04 3e 22 9b 0a 3d 0f 53 82 3c
       0.21127696 0.12936799 0.033839352 0.015908746
0002f0 3b 17 56 be c1 f6 81 3e 2e 87 46 be 94 5a 4a bd
       -0.20907299 0.2538357 -0.19387504 -0.04940279
000300 41 3f 0d 3e 22 8a 50 be ac 31 ea 3d 36 34 f3 bd
       0.1379366 -0.20365193 0.114352554 -0.11875193
000310 4f 05 3a be fe 82 41 bd 96 3d 08 bd 10 a9 be bc
       -0.18166088 -0.047244065 -0.033261858 -0.023273975
000320 73 ea 64 3e 21 26 57 be 9b 8b 05 bc 10 c3 01 3e
       0.2235506 -0.21010639 -0.00815096 0.12672067
000330 85 2b 55 3e ed e3 c5 3d 22 23 5d 3e 53 b1 f5 bd
       0.20817383 0.09662614 0.21595433 -0.119967125
000340 ce e7 d9 bd 1e f4 f7 bd 0e 30 34 3e 1d 18 7b be
       -0.10639916 -0.121071085 0.17596456 -0.24520917
000350 46 2e e0 3d 3f 9f 39 3e e4 4b a4 bd a7 11 c4 bd
       0.10946326 0.18127154 -0.080222875 -0.095736794
000360 2d f4 09 be 40 b9 d8 39 66 7b 21 3e 10 55 56 be
       -0.13472052 0.00041336752 0.15769729 -0.20930886
000370 06 d5 59 be c9 11 80 3a 4e 96 4c be 9c b5 25 3d
       -0.21272668 0.0009770925 -0.19979212 0.0404564
000380 d3 c0 f3 3d 1e 1b 24 3e 6c 94 05 be dd b8 49 3e
       0.11902013 0.1602597 -0.130449 0.19699426
000390 d8 e6 5f bd 1e b6 44 3c 1a 35 7c 3d 3d a2 36 3e
       -0.05466351 0.012006311 0.06157408 0.17835326
0003a0 66 aa c8 3d 13 20 21 be c6 96 07 3e 27 55 78 3e
       0.09798126 -0.15734892 0.13241109 0.24251233
0003b0 90 d5 30 3e d7 b0 c1 3d 8b 74 0f 3d 9d f4 01 bd
       0.17268968 0.09457558 0.035023253 -0.031727422
0003c0 e5 b2 a7 bd cb c5 ce 3d 45 7d d7 bd ae 95 27 be
       -0.08188418 0.1009632 -0.1052194 -0.16365692
0003d0 1d 02 12 be 7f 21 45 3c cc 0f e1 bc dc 6d 1e 3c
       -0.14258619 0.012031912 -0.027473353 0.009669747
0003e0 ee b7 93 3c 3c 70 c9 be 20 52 4c bd 26 53 55 be
       0.01803204 -0.3934344 -0.049883008 -0.208325
0003f0 f6 36 dc 3e 85 14 5b be c5 72 70 3d c1 fa 08 bd
       0.43010682 -0.21394546 0.058703203 -0.033442263

fc.weight f4 [1, 160]
000000 f4 bd 8e 3c e7 6c fd bd 9b a8 9a 3d a1 e8 87 3d
       0.017424561 -0.12374287 0.0755169 0.06636167
000010 02 b4 c0 bd 75 42 fa bd 61 02 4f 3d d2 e7 ec 3d
       -0.09409334 -0.12219707 0.050539378 0.11567654
000020 da 8b 3c 3e 6b 25 f1 3d ee 22 e0 bd db b8 a2 3c
       0.18412724 0.11774715 -0.10944162 0.019863537
000030 96 20 11 be b6 ca de bd c8 20 16 3d 79 d8 5b be
       -0.14172587 -0.10878508 0.036652356 -0.21469297
000040 a0 5f 1b be 7d 73 bb bd d6 21 86 3d 1b 05 99 3e
       -0.15173197 -0.09152887 0.065494224 0.29886708
000050 be 4d 07 3b f4 77 bc 3d 1e dc 48 bd 60 eb 0b 3d
       0.0020645703 0.09202567 -0.049038045 0.034160018
000060 de b1 14 3d b7 1b 2a 3e 0e 8b 32 be 43 57 00 3d
       0.03630244 0.16612135 -0.17435858 0.03133322
000070 71 b8 11 3e a5 c8 a9 3d b8 44 a5 3b cf fa 52 3e
       0.14230515 0.08290223 0.0050435923 0.20603488
000080 5b 1e 00 3e 61 bc 5d bd 0b 7d 86 3d 07 3a e6 bc
       0.1251158 -0.05413473 0.06566819 -0.028103841
000090 1e 27 1c be 67 06 ef 3d 42 39 7b bd 8e fb 36 3d
       -0.15249297 0.11671143 -0.061333902 0.044673495
0000a0 f9 e0 11 3e ff a9 ff bd cc 01 ad 3b 02 81 0a 3d
       0.14245977 -0.12483596 0.005279755 0.033814438
0000b0 4c 0a db 3d d6 12 3f 3d dc 71 87 3d ac af 38 bd
       0.10695323 0.046648823 0.06613514 -0.04508941
0000c0 54 7d 1c be c6 54 29 be 9f 96 cc 3d 64 5e 4e be
       -0.15282184 -0.16536245 0.09989666 -0.20153195
0000d0 64 74 21 bd 99 e0 1e 3e aa fd 73 bd ee 7a 2a be
       -0.03941764 0.15515365 -0.059568085 -0.16648456
0000e0 05 57 ad bd 91 f4 15 be 5f 1f d0 3d f9 8b 98 bd
       -0.08463863 -0.14644076 0.101622336 -0.07448573
0000f0 9a dc 77 bd 5a ab 11 3e 71 50 78 bd 99 f6 77 3d
       -0.060513116 0.14225522 -0.06062359 0.06053791
000100 c2 38 14 3e b0 79 99 3a 28 8e f5 bd 62 eb ff 3d
       0.14474776 0.0011709239 -0.11990005 0.124960676
000110 d5 28 94 bd 15 45 0a 3e 4e 15 29 bd 9b de b2 3c
       -0.072343506 0.13502915 -0.041280083 0.021834662
000120 d9 17 03 3c 65 fd ed bd 74 b4 42 bc da 0b c5 3d
       0.008001291 -0.11620597 -0.011883844 0.09621401
000130 c4 2d e5 3d 03 35 b6 3c 5b 88 27 3d df 88 3c bd
       0.1119037 0.022242075 0.040901523 -0.046028968
000140 a6 4d ba bd 71 0b 38 3e 3a 8a 50 bd d7 82 66 3d
       -0.090968415 0.17973115 -0.050913073 0.056277122
000150 4d a2 bc bd 13 3c 5a bd cc be f7 3c 7c ec fe 3c
       -0.09210644 -0.053279947 0.030242346 0.031118624
000160 dc 49 48 3d 1a 4b c5 3d bc b2 b8 bd 68 8b a6 3d
       0.048898563 0.09633465 -0.09018466 0.081320584
000170 cf b7 b4 3e 62 10 02 3e 14 55 ae be 25 10 5f 3d
       0.35296485 0.12701562 -0.34049284 0.054458756
000180 85 21 1c be a1 84 8d bd 30 0d 78 3d c3 10 12 3d
       -0.15247162 -0.069100626 0.06055945 0.035660516
000190 5e 54 84 be 64 07 96 3d d9 97 63 be 5a a1 45 ba
       -0.25845617 0.073256284 -0.22225894 -0.0007538997
0001a0 01 a9 3e 3e 44 6f 66 3d a8 45 00 3d 65 2a 3b 3c
       0.18619157 0.056258455 0.03131643 0.011423682
0001b0 d1 df ca bd cf 70 42 3d ed 48 03 be 3c 2d ca bd
       -0.09905971 0.047470864 -0.12820788 -0.09871909
0001c0 e1 0a 6d bd dd 00 4b bd 72 24 a8 3d 47 f9 04 bd
       -0.057871703 -0.04956137 0.082100764 -0.032464292
0001d0 8d 1b 11 3d 06 e4 9c bd 84 3b cb 3d fb 15 b7 3e
       0.035426665 -0.076606795 0.09923461 0.35758957
0001e0 d6 ba a4 3c 53 29 0e be 5e 33 c5 3d 0a cb b2 3d
       0.020108622 -0.13882951 0.09628938 0.08730133
0001f0 05 2b 9b 3d 72 53 e8 3d 8f 13 c2 3e d6 73 9e bd
       0.07576565 0.11344041 0.37905547 -0.07736938
000200 aa d8 91 bd 75 84 b1 bd ba bf 1a bc 81 fa 1b be
       -0.071214035 -0.08667842 -0.009445125 -0.15232278
000210 21 ee ca 3d ad 2b ba bd 04 a0 d1 bc af e8 35 be
       0.09908701 -0.09090362 -0.025588997 -0.17764543
000220 3a 14 e5 3b 4e 02 a2 3e ab 31 52 3d 1d dd 3e be
       0.0069909366 0.31642383 0.0513169 -0.18639036
000230 a2 15 9f bd 22 83 41 3b 7f d2 5d bd da a8 33 3d
       -0.07767798 0.0029527624 -0.054155823 0.0438622
000240 62 ab 23 3e 6e 29 e1 3d 4b 11 55 bc 29 f5 5b 3d
       0.15983346 0.1099423 -0.013004611 0.0537006
000250 68 dc 92 3e a0 7b c3 bd cf 1c 94 3e 3c 76 8f 3d
       0.28683782 -0.09545064 0.2892823 0.07004973
000260 6e fd 00 3d ba 7a 37 be 76 56 75 3d b8 bd d4 3d
       0.03149169 -0.1791791 0.05989691 0.103877485
000270 d7 f1 28 3e 0d 60 d4 bb d1 28 b3 3d 13 8b 2d 3e
       0.16498505 -0.0064811767 0.087480195 0.16947584
