model_ending_1.pth (torch, 394257 bytes, 6 tensors)

embedding.weight f4 [9123, 10]
1.014032 0.33562195 -0.8495805 0.5035961 0.12176525 1.3255948 1.1475997 -1.1416165
1.7876054 -0.2114882 0.34230742 -0.81038445 0.37580335 -0.56759787 1.488602 -1.1066812
-0.1455195 -0.7307969 -0.12939338 -1.0619777 1.2596374 -0.90249354 -0.58842206 0.33808863
-0.6411678 0.6588981 -0.58078325 -2.9555728 0.3507475 0.62371665 0.61093193 -1.2472844
0.60198027 -0.652272 0.26786557 -0.6339069 -0.6558104 -1.9841477 -0.70688623 0.8135744
1.1363834 0.16205369 -0.8531475 1.3092597 -0.68961763 0.8465116 2.2278287 0.11123575
-0.4228775 0.089863464 -0.17210332 0.4396007 -1.992319 -0.4196297 -0.53264904 1.0905614
-0.32156348 -0.027541285 0.9438886 -1.8639219 -0.75479925 -0.13131851 0.920527 -0.6139475
-0.84398127 0.3922957 0.46867377 -1.0165626 -0.018488575 -0.41466564 0.92442566 -0.08510986
-0.3422976 -0.4094452 -0.6611867 -0.15617578 0.70598495 -1.402957 0.45897886 -1.9120886
-0.5567235 -1.3701425 0.18263909 -0.97675776 -0.20358346 0.7631213 0.43486503 0.7884789
-0.34709868 -0.82271427 0.78747165 2.9263144 1.8106371 0.7377743 -0.75366193 -1.6712183
0.37882137 -1.0282316 1.5009815 1.7064575 0.8662193 1.3827882 -0.9420093 -0.7922542
-0.79904497 0.20199165 -0.3345891 1.5621731 1.5754827 0.38919246 -0.22077939 2.5113056
0.3124717 -0.5200673 -1.2270125 -0.005074231 -0.7953665 0.66319436 -0.5435934 -0.41812724
-0.3324759 0.73290086 0.22436096 1.3642128 -0.66699225 -0.0004379392 -0.33700114 0.35388222
0.6806695 -0.76215386 -0.5273826 -0.21248618 0.4561674 0.8551633 -0.7414214 0.9265594
-0.6105676 -0.031316612 0.07011185 -0.28765687 0.33805647 -1.4541786 -2.3953533 -0.58664143
1.1682614 1.1593286 -0.39519608 0.6229541 -1.2536088 -2.4714391 -0.4796073 0.80401576
-0.48141396 0.71205103 -0.3524319 0.55502564 0.028479796 -1.3256224 0.27615112 -2.2713485
0.21494779 1.1106491 -0.4163259 0.028922945 -0.53260344 1.2461883 0.19742471 1.008508
0.5206404 0.53230286 0.48666292 1.1096127 -0.16234975 -0.4820909 -0.9355161 0.23215157
-0.7736353 0.71285415 0.71547794 0.3172339 -0.10433977 -0.569488 -0.7424521 -0.9559614
0.32665077 -0.789788 0.8207666 -1.2551562 1.4660263 -0.12025788 -0.4895723 -0.86189973
-0.06938225 -1.5886632 -0.73670286 0.533871 0.7431415 1.4680277 -0.16393784 0.7682376
-0.11891869 -0.620673 0.3883349 -0.5323132 0.80791485 -0.3610041 0.5675002 -1.1384948
0.7855832 0.8123431 -1.106195 0.3896009 0.81792843 1.4383074 0.20966324 0.27159017
-0.5436509 1.2090943 1.3508488 -0.24327141 -0.9315414 1.500246 -0.9934964 0.6217698
0.9081432 -0.14291266 -0.5396636 0.9149433 0.94299203 -0.64586896 -0.8013081 -0.16665922
-0.5690473 0.22747616 2.0417204 -0.12636542 -1.4717702 0.40092528 1.1774014 -1.0321677
0.5011737 1.1308846 0.6931221 0.24173015 -0.57651454 -0.45776978 -0.14239064 -1.9687984
-1.4663655 1.0415821 0.27646518 0.8276287 0.760701 -0.25492185 -1.2431486 1.283585
00000000: cdcb 813f a4d6 ab3e 1c7e 59bf adeb 003f
00000010: 0f60 f93d 17ad a93f 8ce4 923f 7d20 92bf
00000020: 41d0 e43f 5d90 58be eb42 af3e 5b75 4fbf
00000030: 4c69 c03e 184e 11bf 838a be3f bba7 8dbf
00000040: 1003 15be 8115 3bbf b37f 04be e3ee 87bf
00000050: cc3b a13f d109 67bf d4a2 16bf f419 ad3e
00000060: 9323 24bf 8cad 283f 36ae 14bf 1b28 3dc0
00000070: 2d95 b33e e5ab 1f3f 0966 1c3f 04a7 9fbf
00000080: 611b 1a3f 4cfb 26bf ad25 893e b947 22bf
00000090: 31e3 27bf 8df8 fdbf 7ff6 34bf 6946 503f
000000a0: 0375 913f 67f1 253e e067 5abf d295 a73f
000000b0: c88a 30bf fcb4 583f bf94 0e40 92cf e33d
000000c0: 6683 d8be 560a b83d da3b 30be 5813 e13e
000000d0: 4f04 ffbf b4d9 d6be b05b 08bf 8497 8b3f
000000e0: f8a3 a4be 439e e1bc afa2 713f fe94 eebf
000000f0: 863a 41bf 5c78 06be a8a7 6b3f aa2b 1dbf
00000100: 280f 58bf fbda c83e 02f6 ef3e b91e 82bf
00000110: 5a75 97bc 0e4f d4be 29a7 6c3f 144e aebd
00000120: a241 afbe cda2 d1be 8843 29bf 8bec 1fbe
00000130: 6ebb 343f 1894 b3bf 47ff ea3e 52bf f4bf
00000140: 6e85 0ebf d460 afbf be05 3b3e cc0c 7abf
00000150: 2f78 50be eb5b 433f a1a6 de3e c1d9 493f
00000160: ebb6 b1be 679d 52bf be97 493f bc48 3b40
00000170: f5c2 e73f c7de 3c3f fdef 40bf 7bea d5bf
00000180: e0f4 c13e 189d 83bf 2920 c03f 336d da3f
00000190: 8cc0 5d3f 34ff b03f 8627 71bf 2cd1 4abf
000001a0: 368e 4cbf e6d6 4e3e 434f abbe 4af5 c73f
000001b0: 6ba9 c93f 3c44 c73e fe13 62be 3bb9 2040
000001c0: 4afc 9f3e 2123 05bf bf0e 9dbf bc45 a6bb
000001d0: 249d 4bbf 1bc7 293f f028 0bbf c614 d6be
000001e0: 483a aabe 649f 3b3f e1be 653e 869e ae3f
000001f0: 01c0 2abf 349b e5b9 6a8b acbe 0d30 b53e
00000200: 5b40 2e3f 841c 43bf 8c02 07bf fa95 59be
00000210: c68e e93e fbeb 5a3f cbcd 3dbf ff32 6d3f
00000220: 294e 1cbf d945 00bd cd96 8f3d c347 93be
00000230: bd15 ad3e 8622 babf 784d 19c0 222e 16bf
00000240: 9789 953f e164 943f 2457 cabe eb79 1f3f
00000250: 4176 a0bf 0f2c 1ec0 178f f5be fad3 4d3f
00000260: e47b f6be fa48 363f f471 b4be 2916 0e3f
00000270: 764e e93c ffad a9bf ae63 8d3e c65d 11c0
00000280: 461b 5c3e c029 8e3f ab28 d5be d0ef ec3c
00000290: b358 08bf 1983 9f3f b429 4a3e ca16 813f
000002a0: b048 053f 0045 083f e22b f93e ca07 8e3f
000002b0: 033f 26be 9ed4 f6be fc7d 6fbf 24b9 6d3e
000002c0: f70c 46bf 9c7d 363f 9029 373f 7b6c a23e
000002d0: 17b0 d5bd f7c9 11bf 5711 3ebf e3b9 74bf
000002e0: c53e a73e 8c2f 4abf c31d 523f f5a8 a0bf
000002f0: c0a6 bb3f c349 f6bd 38a9 fabe 76a5 5cbf
00000300: 4818 8ebd 5159 cbbf 8f98 3cbf c5ab 083f
00000310: 853e 3e3f 55e8 bb3f 52df 27be 38ab 443f
00000320: a48b f3bd 6de4 1ebf d5d3 c63e ae45 08bf
00000330: 82d3 4e3f 88d5 b8be b147 113f 33ba 91bf
00000340: fb1b 493f b8f5 4f3f cc97 8dbf c579 c73e
00000350: c263 513f 751a b83f f6b1 563e de0d 8b3e
00000360: b52c 0bbf 9ac3 9a3f 9de8 ac3f 241c 79be
00000370: 7f79 6ebf 1008 c03f c855 7ebf 4e2c 1f3f
00000380: 137c 683f b257 12be 6527 0abf b939 6a3f
00000390: ed67 713f ab57 25bf 8722 4dbf b7a8 2abe
000003a0: 15ad 11bf 83ef 683e 8cab 0240 f065 01be
000003b0: f762 bcbf 1446 cd3e 17b5 963f 121e 84bf
000003c0: eb4c 003f d4c0 903f 7370 313f 1c88 773e
000003d0: 7596 13bf cd60 eabe dace 11be 9601 fcbf
000003e0: ddb1 bbbf 9052 853f d88c 8d3e 79df 533f
000003f0: 4dbd 423f 1e85 82be 7e1f 9fbf 834c a43f

lstm.weight_ih_l0 f4 [140, 10]
0.09633598 0.09091047 -0.0007330026 0.18940702 -0.24759918 0.05382722 0.11409181 -0.1942361
0.24961089 -0.13807979 -0.017827623 -0.1175385 -0.018544137 0.10670299 -0.18231438 -0.19861099
-0.09948478 -0.17420079 -0.011894203 0.21306951 -0.17633677 -0.11853269 -0.067802936 0.13976464
-0.1249404 0.050396614 -0.16743982 -0.022026146 -0.1399788 -0.09093159 -0.060464554 0.15274009
-0.070854165 0.19505237 -0.09988364 0.220774 0.09241332 -0.05995175 0.051708892 0.09997919
0.1058817 -0.14554048 0.067888364 0.21521884 0.15759678 0.049792103 0.004182417 -0.1424119
-0.037332926 0.20412369 -0.13900872 -0.2337436 -0.08739517 0.006645809 -0.12502015 0.060200665
-0.117863625 -0.13828358 -0.046435058 0.08136848 -0.066243 0.15509395 -0.1766138 -0.0052598678
-0.20526288 0.06572985 -0.0124567365 0.026836347 0.15557282 0.1978496 0.10333321 0.046008192
0.12468047 0.13100688 0.13555901 -0.08683132 -0.03963959 -0.1348258 -0.07293898 0.047200352
0.12848294 0.086483315 -0.017473115 -0.044597853 -0.11206396 -0.05595487 0.02966732 -0.15559374
0.14002548 0.008435131 0.016709631 -0.058518924 0.024629818 -0.04419213 0.13788362 0.17276719
-0.041796993 -0.05262322 0.0026036536 -0.026608199 -0.11081926 0.20332718 -0.19197842 0.12760875
-0.0927037 0.18577622 0.25947022 0.04119397 -0.013697972 -0.10772995 0.031199526 -0.074463345
0.2222069 0.08023357 -0.091094665 0.02506777 -0.068358764 -0.12914652 -0.09900041 0.090674594
-0.12819065 0.14369234 0.2836377 0.013476215 -0.065119125 0.026301512 0.0020484591 0.1844663
-0.032143425 0.36923483 -0.10724084 -0.19833358 -0.04402171 -0.19009508 -0.07298915 -0.044134416
-0.072618514 -0.10377603 -0.18154429 0.26577297 0.09526861 0.0100273 -0.034096975 -0.019211171
0.04525358 0.18489096 -0.02425784 0.12459869 0.034794796 -0.14685526 -0.117803484 0.15051277
-0.041665208 -0.13417204 0.052941885 0.04945899 0.16733903 -0.17770223 0.020130076 0.2577406
0.019689452 0.11673023 -0.1336973 0.030729633 -0.020030065 -0.15337114 0.038745217 -0.18945014
0.042382553 0.31174928 -0.1146168 -0.18621303 0.03820198 -0.058419257 0.07799956 -0.23104608
-0.016419034 0.036096144 -0.13286366 0.23109268 -0.21232183 -0.12967874 0.02836956 -0.19870277
0.25077036 0.16013892 -0.0035217698 -0.101095796 0.0050584506 0.11293395 -0.12097573 -0.09889688
0.20081882 0.06998789 -0.07123264 0.0649772 -0.017042454 -0.34158716 -0.16312525 -0.00039802742
-0.015407608 0.013541362 -0.16681926 0.20783041 0.06412987 -0.010369214 0.08587964 0.02339936
0.020765167 -0.015758796 -0.055507142 -0.1367888 0.08748004 -0.036077175 -0.16677117 -0.11913751
0.0041143834 -0.14946698 -0.0878205 -0.10424499 0.2693923 0.07514819 -0.07694498 0.14690322
-0.038192324 -0.027242454 0.046669144 -0.05330278 0.14490314 -0.17757218 0.16045739 0.1409932
0.09092502 0.064381555 0.09100504 0.07447766 -0.0033495408 -0.106891766 0.049537633 -0.20339249
-0.022750316 0.13428341 0.2797687 0.22685684 -0.09782212 0.19032364 -0.060465477 -0.12731825
0.016046515 0.19915363 -0.014077963 0.025749285 -0.037185553 0.1518236 -0.21641958 -0.059984956
00000000: cc4b c53d 452f ba3d f926 40ba eaf3 413e
00000010: a48a 7dbe ee79 5c3d f8a8 e93d d4e5 46be
00000020: ff99 7f3e ca64 0dbe 3c0b 92bc 06b8 f0bd
00000030: e0e9 97bc 1987 da3d 9fb0 3abe ae60 4bbe
00000040: adbe cbbd b161 32be e7df 42bc e52e 5a3e
00000050: a091 34be 44c1 f2bd 44dc 8abd 761e 0f3e
00000060: c1e0 ffbd ae6c 4e3d 5875 2bbe 2d70 b4bc
00000070: 9a56 0fbe 573a babd aea9 77bd e667 1c3e
00000080: fd1b 91bd cfbb 473e cb8f ccbd 9412 623e
00000090: 3243 bd3d f78f 75bd b4cc 533d e4c1 cc3d
000000a0: 81d8 d83d 9008 15be 0e09 8b3d 5462 5c3e
000000b0: 0d61 213e cef2 4b3d a80c 893b 6dd4 11be
000000c0: 69ea 18bd cd05 513e 4d58 0ebe 7b5a 6fbe
000000d0: 3dfc b2bd 16c5 d93b 4805 00be f994 763d
000000e0: 7c62 f1bd 369a 0dbe b032 3ebd 85a4 a63d
000000f0: 69aa 87bd f3d0 1e3e 3fda 34be f85a acbb
00000100: 6f30 52be 5f9d 863d 5717 4cbc e6d7 db3c
00000110: 7b4e 1f3e 1699 4a3e 5da0 d33d 1673 3c3d
00000120: 7958 ff3d ab26 063e fbcf 0a3e 9ed4 b1bd
00000130: 1f5d 22bd c60f 0abe 0861 95bd 2855 413d
00000140: 0891 033e 2a1e b13d c723 8fbc 3dac 36bd
00000150: ca81 e5bd ef30 65bd e108 f33c f753 1fbe
00000160: d762 0f3e 8133 0a3c a3e2 883c 8ab1 6fbd
00000170: 79c4 c93c cf02 35bd 5d31 0d3e e2e9 303e
00000180: 5333 2bbd 728b 57bd 0fa2 2a3b 70f9 d9bc
00000190: 35f5 e2bd 0035 503e fe95 44be deab 023e
000001a0: 70db bdbd 1f3c 3e3e 48d9 843e 02bb 283d
000001b0: 756d 60bc 85a1 dcbd 2696 ff3c 3d80 98bd
000001c0: 358a 633e 7f51 a43d d78f babd ed5a cd3c
000001d0: aeff 8bbd fc3e 04be bac0 cabd 9ab3 b93d
000001e0: 6944 03be 1624 133e f638 913e 58cb 5c3c
000001f0: 2d5d 85bd 4576 d73c 713f 063b bce4 3c3e
00000200: d3a8 03bd 590c bd3e 16a1 dbbd f517 4bbe
00000210: 1c50 34bd 49a8 42be 567b 95bd 4ac6 34bd
00000220: 04b9 94bd 8788 d4bd bfe6 39be 6513 883e
00000230: 301c c33d 8b49 243c 45a9 0bbd bf60 9dbc
00000240: d15b 393d 0e54 3d3e 61b8 c6bc 992d ff3d
00000250: fd84 0e3d 3a61 16be f442 f1bd 0520 1a3e
00000260: 23a9 2abd 6564 09be 97d9 583d 8395 4a3d
00000270: ec5a 2b3e 93f7 35be d4e7 a43c 93f6 833e
00000280: c64b a13c 4210 ef3d f2e7 08be b6bc fb3c
00000290: 1716 a4bc 530d 1dbe 4eb3 1e3d 38ff 41be
000002a0: 5499 2d3d 9a9d 9f3e 36bc eabd a1ae 3ebe
000002b0: ae79 1c3d 0849 6fbd 3cbe 9f3d 5897 6cbe
000002c0: 3681 86bc 8dd9 133d 690d 08be 8fa3 6c3e
000002d0: e56a 59be 81ca 04be 4867 e83c bd78 4bbe
000002e0: f964 803e 75fb 233e 7ecd 66bb 500b cfbd
000002f0: 5cc1 a53b ea49 e73d 20c2 f7bd 738a cabd
00000300: 73a3 4d3e d055 8f3d 6be2 91bd c412 853d
00000310: 9e9c 8bbc 83e4 aebe 4e0a 27be 56ae d0b9
00000320: 3170 7cbc 97dc 5d3c abd2 2abe 7fd1 543e
00000330: 8556 833d a3e3 29bc aae1 af3d 04b0 bf3c
00000340: b61b aa3c 9718 81bc 755b 63bd 5d12 0cbe
00000350: bc28 b33d a9c5 13bd 10c6 2abe 5efe f3bd
00000360: f3d1 863b df0d 19be 3cdb b3bd 667e d5bd
00000370: caed 893e 4be7 993d 5495 9dbd cc6d 163e
00000380: 8e6f 1cbd 912b dfbc 2528 3f3d 0454 5abd
00000390: 7d61 143e 7bd5 35be f14e 243e 8560 103e
000003a0: e636 ba3d 7ada 833d da60 ba3d be87 983d
000003b0: f883 5bbb 12ea dabd f9e7 4a3d 1f46 50be
000003c0: df5e babc 9781 093e d83d 8f3e 294d 683e
000003d0: f756 c8bd 33e4 423e a6aa 77bd b75f 02be
000003e0: fb73 833c eeee 4b3e 42a7 66bc 2af0 d23c
000003f0: e14f 18bd a577 1b3e 189d 5dbe c9b2 75bd

lstm.weight_hh_l0 f4 [140, 35]
-0.0021608921 0.038340587 -0.082180046 -0.027105143 0.04880027 -0.07111747 0.02185877 -0.016185798
-0.16510753 0.16468512 -0.07225177 -0.023952756 0.12617205 0.17036024 -0.073485024 0.0672093
-0.09514817 0.067638524 -0.0080198115 -0.024120143 -0.20968667 0.065672696 0.05205705 0.027461117
0.07625773 -0.15339704 0.12004126 -0.18062603 -0.14063592 0.05182225 0.0134537555 0.029182868
0.14352682 0.105146214 0.015043334 0.027607853 0.1103978 -0.05124517 -0.04678526 0.060007215
-0.16083118 -0.087339 -0.021591596 -0.061388943 0.17610554 -0.14232509 -0.008136978 -0.03749432
0.15059231 0.0144076785 -0.036897734 0.108998895 -0.0553479 0.15419064 0.06925696 -0.044096597
-0.03307565 0.17262278 0.108428285 0.06268206 0.06781437 0.24755156 -0.107155874 -0.12668353
0.13891529 -0.059006702 -0.030324224 -0.16844706 -0.10901978 0.26793665 -0.16286585 -0.11875447
-0.049426254 -0.22298384 -0.13819472 0.09829361 -0.11516347 -0.10650459 -0.19993348 0.040316127
-0.15060295 0.032236293 -0.06922717 -0.16483538 0.16661353 0.13276295 0.013286709 0.066182345
-0.10569279 0.30193633 -0.12999922 0.12131809 0.06978361 -0.0046938076 -0.030547846 -0.17875026
0.29227313 -0.06929765 -0.076978445 0.08806375 0.027168544 0.18432589 -0.096375205 -0.14200868
0.35715422 -0.010000593 -0.054615237 0.015289208 0.2024806 0.046350393 -0.2368062 0.0060308604
-0.1974384 -0.266337 0.00051740557 -0.036041867 -0.037699472 -0.014987897 -0.037814796 0.13362457
0.025701238 0.051468942 0.04106814 0.16999395 -0.08426219 -0.19451143 0.13813585 0.0732351
-0.11078382 0.10963046 -0.062770575 -0.1806825 -0.21607472 -0.16312853 -0.00838967 -0.12606171
0.0045629498 0.16232772 0.009515127 0.09910499 0.07046627 0.041662883 -0.19797392 0.07064835
-0.1930403 -0.25803187 0.05560091 0.12978517 0.014269614 -0.022795273 0.08563362 0.17069164
-0.050832786 -0.10765606 0.19175881 -0.18266572 -0.033333015 -0.1383137 0.1791359 0.10329286
0.047455993 0.20947224 -0.0044587925 -0.030528372 0.11942424 -0.09968687 0.15570468 -0.13389306
-0.011193406 0.19271956 -0.11973595 0.07621439 0.021734376 -0.10982976 0.18901773 0.04168728
-0.18977864 -0.028846884 -0.10151662 -0.09645628 -0.11601736 0.20930289 -0.27533504 -0.17907198
0.21914104 0.22046676 0.03642781 0.022005895 -0.036092028 0.03550119 -0.06331815 0.09678215
0.2121752 0.03984297 0.045329344 -0.18207157 0.17132908 0.2655852 -0.21297888 0.13279827
-0.13018554 -0.054814365 -0.1687024 -0.21553952 0.18405078 -0.13032098 0.23529078 0.07365328
0.031447332 -0.15370741 0.103418596 -0.046633847 -0.03155165 0.17469452 -0.22608085 0.048781905
0.13807724 0.009149176 -0.171716 -0.045798738 -0.00908541 -0.07836733 -0.14597934 0.016579594
-0.07706657 -0.21775016 0.22014166 0.14993262 0.21378551 -0.19106151 -0.0053316182 0.21891136
-0.06280602 0.015728496 0.022636736 0.027792396 -0.121663764 0.07763837 -0.09672288 0.14492902
-0.2471074 0.10656433 0.17709298 0.014246078 -0.06565015 -0.1386589 0.1254057 -0.05567963
0.1290358 0.045585923 -0.15383877 0.16400093 0.15438241 0.15164657 -0.16922374 -0.118295915
00000000: c19d 0dbb 050b 1d3d 034e a8bd 9b0b debc
00000010: cbe2 473d 09a6 91bd 2a11 b33c 1498 84bc
00000020: f311 29be 37a3 283e bcf8 93bd 9238 c4bc
00000030: 3f33 013e ea72 2e3e 517f 96bd 08a5 893d
00000040: 0bdd c2bd 1186 8a3d 8765 03bc 9b97 c5bc
00000050: 1ab8 56be 687f 863d c639 553d 23f6 e03c
00000060: 032d 9c3d 1d14 1dbe 31d8 f53d 08f6 38be
00000070: dd02 10be 9143 543d 246d 5c3c e910 ef3c
00000080: b2f8 123e e656 d73d 5178 763c dd29 e23c
00000090: 3e18 e23d 75e6 51bd e7a1 3fbd 20ca 753d
000000a0: eeb0 24be cade b2bd dce0 b0bc f972 7bbd
000000b0: 0355 343e abbd 11be f650 05bc a593 19bd
000000c0: df34 1a3e 2f0e 6c3c 1422 17bd d03a df3d
000000d0: 7bb4 62bd 27e4 1d3e 98d6 8d3d a29e 34bd
000000e0: 557a 07bd 07c4 303e a60f de3d 745f 803d
000000f0: 43e2 8a3d 287e 7d3e 8a74 dbbd 54b9 01be
00000100: cf3f 0e3e 03b1 71bd 826a f8bc 637d 2cbe
00000110: c345 dfbd fe2e 893e 4ec6 26be 8b35 f3bd
00000120: 2f73 4abd e055 64be eb82 0dbe 294e c93d
00000130: d3da ebbd 141f dabd 5dbb 4cbe 8622 253d
00000140: a937 1abe 340a 043d f9c6 8dbd 9bca 28be
00000150: bd9c 2a3e 03f3 073e 7fb0 593c 9c8a 873d
00000160: 7675 d8bd 6697 9a3e 841e 05be 9e75 f83d
00000170: b6ea 8e3d 83ce 99bb 7a3f fabc 4f0a 37be
00000180: d3a4 953e edeb 8dbd e0a6 9dbd c45a b43d
00000190: 9190 de3c edbf 3c3e 5d60 c5bd b96a 11be
000001a0: ebdc b63e 87d9 23bc 3ab4 5fbd 967f 7a3c
000001b0: 1357 4f3e e9d9 3d3d 537d 72be 869e c53b
000001c0: 4b2d 4abe 535d 88be 80a2 073a a3a0 13bd
000001d0: c36a 1abd cc8f 75bc b0e3 1abd e1d4 083e
000001e0: 678b d23c 19d1 523d 1137 283d e512 2e3e
000001f0: a891 acbd 012e 47be 7c73 0d3e 49fc 953d
00000200: a1e2 e2bd ef85 e03d dc8d 80bd d504 39be
00000210: b142 5dbe 2a0b 27be d474 09bc 5216 01be
00000220: cc84 953b 3d39 263e 56e5 1b3c 8ff7 ca3d
00000230: 9f50 903d b3a6 2a3d adb9 4abe 15b0 903d
00000240: 5bac 45be c11c 84be c8bd 633d 67e6 043e
00000250: 19cb 693c 27bd babc ae60 af3d cac9 2e3e
00000260: 0a36 50bd c87a dcbd 6c5c 443e b90c 3bbe
00000270: 3388 08bd 1ba2 0dbe 676f 373e 358b d33d
00000280: 3761 423d e47f 563e 101b 92bb a316 fabc
00000290: b294 f43d a128 ccbd 0c71 1f3e 431b 09be
000002a0: 8c64 37bc 4758 453e 1f38 f5bd 4a16 9c3d
000002b0: 4a0c b23c 6dee e0bd dd8d 413e 48c0 2a3d
000002c0: 5555 42be 4d50 ecbc f2e7 cfbd df8a c5bd
000002d0: 829a edbd 7f53 563e b7f8 8cbe a55e 37be
000002e0: 8266 603e 0ac2 613e 5435 153d b545 b43c
000002f0: 3cd5 13bd b269 113d f2ac 81bd b835 c63d
00000300: 7544 593e 6232 233d 43ab 393d f870 3abe
00000310: e470 2f3e c9fa 873e 2317 5abe 45fc 073e
00000320: 5c4f 05be 0785 60bd 52c0 2cbe 64b6 5cbe
00000330: cf77 3c3e dd72 05be 11f0 703e 88d7 963d
00000340: ebce 003d 7a65 1dbe 21cd d33d 2203 3fbd
00000350: 4e3c 01bd 1fe3 323e bd81 67be 89cf 473d
00000360: 1f64 0d3e 6de6 153c 52d6 2fbe 7597 3bbd
00000370: f9da 14bc 0d7f a0bd 9c7b 15be eed1 873c
00000380: 14d5 9dbd e6f9 5ebe d16c 613e f087 193e
00000390: 97ea 5a3e a1a5 43be dbb4 aebb 4d2a 603e
000003a0: 71a0 80bd 0cd9 803c ad70 b93c e1ac e33c
000003b0: da2a f9bd de00 9f3d a516 c6bd 4668 143e
000003c0: b909 7dbe 663e da3d dd57 353e 6268 693c
000003d0: 9673 86bd 99fc 0dbe 5a6a 003e 5310 64bd
000003e0: f621 043e 4eb8 3a3d e987 1dbe dcef 273e
000003f0: 6c16 1e3e 3d49 1b3e fd48 2dbe 2145 f2bd

lstm.bias_ih_l0 f4 [140]
-0.09725673 0.1406462 0.077658154 0.2232199 0.22436965 0.19867836 0.039145064 -0.019870823
-0.087332554 0.008775199 -0.024433184 -0.027059002 0.22975993 -0.13918944 -0.03240631 0.0361585
0.13804436 -0.09368601 -0.036667187 0.33938855 0.1436553 0.22011305 0.1353043 -0.030430706
0.025585707 -0.06940965 0.16121036 0.1560251 0.2429244 0.14289872 -0.010160515 0.07824044
-0.08764621 -0.002099183 0.111627296 0.036195938 0.09265051 0.15911435 -0.019727558 0.1926894
0.16455561 -0.108119026 0.036606736 0.111728474 0.18969072 0.049649604 -0.109207384 0.09829044
0.12710734 0.17067938 0.06378316 0.12491612 0.016871491 -0.08900762 0.25434148 0.20922016
-0.016472999 0.11964199 0.20380539 0.10516824 0.06648283 0.07105947 0.046058465 0.1974495
0.1898651 -0.010081991 -0.02262612 0.15523612 0.07140429 0.15232442 0.004303995 -0.03945275
0.016086072 -0.19281434 0.12209333 0.029672839 0.09889219 -0.057651434 -0.11562842 0.16508785
0.18328375 0.13213164 -0.22106026 -0.09062799 0.16683117 -0.15235063 -0.009226803 0.12540954
0.23544554 0.19640855 -0.12559755 0.13202856 0.16109361 -0.10441777 -0.0661912 0.007766545
0.019609697 -0.0036839559 0.082228094 0.18742077 -0.11256862 -0.021815605 -0.045085575 -0.025499785
0.1663617 -0.09085107 -0.1587836 0.07010853 0.014971562 0.021633888 0.006518918 0.24545695
-0.08199463 0.2112815 -0.060054757 -0.025524328 -0.08371489 0.14685875 0.10130906 0.19961599
0.22312185 0.059760246 0.02353188 0.08434724 0.033947293 -0.0060747424 0.04307611 0.034941424
0.22607003 0.15221168 0.0043243053 -0.016107576 0.13441029 -0.09143797 0.24574633 -0.015595083
-0.09439186 0.094099864 0.0820837 -0.019283753
00000000: 892e c7bd 8f05 103e 3d0b 9f3d c293 643e
00000010: 28c1 653e 5772 4b3e 9356 203d 23c8 a2bc
00000020: 69db b2bd dac5 0f3c 1a28 c8bc d7aa ddbc
00000030: 3046 6b3e ad87 0ebe 7bbc 04bd ef1a 143d
00000040: 805b 0d3e 73de bfbd 5530 16bd 56c4 ad3e
00000050: 601a 133e 5165 613e 368d 0a3e d149 f9bc
00000060: 1e99 d13c a626 8ebd 5414 253e 0bc5 1f3e
00000070: 2dc1 783e 0b54 123e 4a78 26bc 863c a03d
00000080: db7f b3bd 7292 09bb da9c e43d 3142 143d
00000090: 8dbf bd3d dfee 223e b09b a1bc 5f50 453e
000000a0: 4481 283e 826d ddbd f2f0 153d e6d1 e43d
000000b0: 493e 423e 625d 4b3d 1fa8 dfbd 804c c93d
000000c0: 6d28 023e 93c6 2e3e bfa0 823d 06d4 ff3d
000000d0: 1536 8a3c a149 b6bd 0c39 823e cf3d 563e
000000e0: 62f2 86bc dc06 f53d 5cb2 503e 7262 d73d
000000f0: 2628 883d a187 913d cda7 3c3d 3430 4a3e
00000100: ff6b 423e ef2e 25bc 6a5a b9bc 38f6 1e3e
00000110: 6a3c 923d effa 1b3e 8708 8d3b 3599 21bd
00000120: f0c6 833c 1f71 45be 110c fa3d 7414 f33c
00000130: fd87 ca3d e923 6cbd 98ce ecbd ca0c 293e
00000140: bcae 3b3e 844d 073e 9f5d 62be 2b9b b9bd
00000150: cad5 2a3e ce01 1cbe 042c 17bc 5c6b 003e
00000160: a318 713e 531f 493e a59c 00be 7f32 073e
00000170: b9f5 243e fcd8 d5bd 408f 87bd 807e fe3b
00000180: 84a4 a03c 866e 71bb 3467 a83d 3beb 3f3e
00000190: 608a e6bd a4b6 b2bc a7ab 38bd ede4 d0bc
000001a0: b95a 2a3e 2010 babd 2b98 22be 1095 8f3d
000001b0: 484b 753c 8d39 b13c a69c d53b 1159 7b3e
000001c0: cdec a7bd 2d5a 583e fafb 75bd 6518 d1bc
000001d0: b672 abbd 2462 163e 207b cf3d 2268 4c3e
000001e0: 0e7a 643e 29c7 743d eec5 c03c 3fbe ac3d
000001f0: 510c 0b3d a20e c7bb 9370 303d bd1e 0f3d
00000200: e77e 673e 61dd 1b3e e7b2 8d3b 09f4 83bc
00000210: daa2 093e d543 bbbd eda4 7b3e 8582 7fbc
00000220: 8550 c1bd 6eb7 c03d 801b a83d f6f8 9dbc

lstm.bias_hh_l0 f4 [140]
0.17654021 0.118153214 0.034957968 0.27706265 -0.067544356 0.053014502 -0.072332576 0.0795252
0.13763583 0.078964986 -0.013254726 0.077149376 0.13866384 0.07671534 -0.053685267 0.15264517
0.026364809 -0.17551601 -0.16766164 0.10780968 0.08331179 0.1996018 0.08225221 0.1890846
0.0250759 0.09928939 0.05527777 0.29681814 0.19359523 -0.022882042 -0.16288298 0.058662187
-0.06908827 0.22348538 0.1124056 0.09140201 0.23737282 0.20257953 0.21592617 0.24886808
0.25233224 0.050195176 0.024145452 -0.09793865 0.063377775 -0.055292603 -0.15930097 0.17519237
-0.019417644 0.23029542 -0.04299361 -0.034117814 -0.02317078 0.08793597 0.15757336 0.03769396
0.082674384 0.23297612 -0.06367245 0.15979937 0.062026903 0.32303408 0.15425095 -0.05377343
0.1871207 -0.18845548 -0.10548517 0.03557718 0.13735126 0.2670362 0.03546505 -0.025973478
-0.1560064 0.02929606 -0.14358953 -0.0049672755 -0.04142117 0.042718925 -0.16608061 -0.085246645
-0.12073819 0.11678816 -0.14461574 0.097805135 0.024865506 0.06048062 -0.022406308 -0.09143861
-0.06048535 0.21905746 0.08028743 0.19593012 0.07062307 -0.00189597 -0.1369652 -0.06554419
0.17431925 -0.17748442 0.010151915 0.091768034 -0.077161014 -0.05629715 -0.1597431 -0.00405985
0.1480027 0.091622025 0.097209096 -0.08777025 0.10160856 -0.09264845 0.15230654 0.01064078
-0.091117956 -0.08745953 -0.081634186 0.0264359 0.05146805 0.074251086 0.14956467 -0.036565013
0.15819697 0.043783892 -0.12434144 -0.0682931 0.09806291 -0.09640055 -0.095542304 0.023576582
0.2270157 -0.00415939 0.11608944 0.0060707135 -0.029463323 -0.0218217 0.0410205 0.07182967
0.0127602 0.03801706 -0.08439055 0.042806692
00000000: f5c6 343e 50fa f13d 1630 0f3d 28db 8d3e
00000010: b254 8abd bc25 593d 1a23 94bd 1cde a23d
00000020: 68f0 0c3e 65b8 a13d 5a2a 59bc 7e00 9e3d
00000030: e5fd 0d3e ef1c 9d3d 15e5 5bbd 044f 1c3e
00000040: 03fb d73c 78ba 33be 7eaf 2bbe 52cb dc3d
00000050: 5f9f aa3d 6a64 4c3e d973 a83d 659f 413e
00000060: f96b cd3c 3c58 cb3d f16a 623d 8cf8 973e
00000070: d43d 463e 1f73 bbbc ccca 26be c347 703d
00000080: 277e 8dbd 5ad9 643e e834 e63d fa30 bb3d
00000090: dc11 733e 0271 4f3e c01b 5d3e 46d7 7e3e
000000a0: b131 813e 7599 4d3d afcc c53c 0f94 c8bd
000000b0: 35cc 813d 7f7a 62bd cb1f 23be a165 333e
000000c0: c011 9fbc 90d2 6b3e 111a 30bd 1fbf 0bbd
000000d0: a6d0 bdbc c617 b43d e95a 213e fb64 1a3d
000000e0: 3051 a93d 4b91 6e3e b466 82bd 72a2 233e
000000f0: ec0f 7e3d b964 a53e f6f3 1d3e 8741 5cbd
00000100: 929c 3f3e 79fa 40be 9c08 d8bd 61b9 113d
00000110: cfa5 0c3e f8b8 883e cd43 113d 55c6 d4bc
00000120: 24c0 1fbe 4afe ef3c 2209 13be 87c4 a2bb
00000130: 3fa9 29bd 0afa 2e3d 0911 2abe cb95 aebd
00000140: 9645 f7bd a12e ef3d 2616 14be 0f4e c83d
00000150: bfb2 cb3c 87ba 773d 6f8d b7bc 2a44 bbbd
00000160: 7dbf 77bd 9950 603e bc6d a43d e8a1 483e
00000170: d4a2 903d 3282 f8ba 9b40 0cbe 083c 86bd
00000180: bf80 323e 7abe 35be 3854 263c e1f0 bb3d
00000190: 9806 9ebd d797 66bd b293 23be 7d08 85bb
000001a0: 058e 173e 54a4 bb3d 9015 c73d e4c0 b3bd
000001b0: 2618 d03d 78be bdbd 3ff6 1b3e ab56 2e3c
000001c0: 0d9c babd fb1d b3bd d32f a7bd 1a90 d83c
000001d0: 29d0 523d f410 983d 7b27 193e 32c5 15bd
000001e0: 63fe 213e bd56 333d baa6 febd 41dd 8bbd
000001f0: 35d5 c83d a76d c5bd afab c3bd ad23 c13c
00000200: ce76 683e 7e4b 88bb 4dc0 ed3d d6ec c63b
00000210: 115d f1bc 6cc3 b2bc 1d05 283d 6f1b 933d
00000220: 2810 513c c7b7 1b3d f4d4 acbd 1256 2f3d

fc.weight f4 [1, 70]
0.059400275 -0.028262954 -0.018120792 0.05462596 0.009277456 -0.065350674 0.109824255 -0.15271038
-0.10317702 0.17248452 0.11969669 -0.07669743 0.03276285 0.073618844 0.012136334 -0.033631776
0.063721135 0.043808993 -0.09598214 -0.07666981 -0.07480995 0.17247897 0.082910426 -0.1575483
0.13634169 -0.036110055 0.07787693 -0.05880325 -0.08925504 0.16883284 0.10194213 0.14192648
0.0573184 -0.16037558 -0.029112136 -0.0008310214 -0.09926589 -0.21377435 -0.12257649 -0.15994407
0.118064545 -0.07284132 0.004496488 0.0151834795 0.14826584 0.12871456 -0.028367123 -0.1739254
0.059335966 0.19446751 -0.20754685 0.12829086 0.059671737 0.20134598 0.26209083 -0.09834537
0.14941697 0.069015995 -0.06813299 -0.12669617 -0.062273454 0.33667502 -0.06748358 -0.038412783
-0.02978707 0.08400227 0.14085299 0.11124951 0.03055846 0.23181018
00000000: b44d 733d b687 e7bc 0e72 94bc 78bf 5f3d
00000010: 7900 183c 93d6 85bd 8aeb e03d 1c60 1cbe
00000020: 794e d3bd c89f 303e 8a23 f53d 8b13 9dbd
00000030: 5732 063d 7ac5 963d 79d7 463c 79c1 09bd
00000040: 3a80 823d 0f71 333d 4992 c4bd 1005 9dbd
00000050: f635 99bd 549e 303e f1cc a93d 5754 21be
00000060: 289d 0b3e 23e8 13bd f17d 9f3d addb 70bd
00000070: 59cb b6bd 84e2 2c3e 09c7 d03d 2d55 113e
00000080: b3c6 6a3d 7f39 24be 937c eebc e7d8 59ba
00000090: ea4b cbbd aae7 5abe 6209 fbbd 61c8 23be
000000a0: d3cb f13d d42d 95bd 4657 933b 21c4 783c
000000b0: 00d3 173e c0cd 033e 2b62 e8bc 8019 32be
000000c0: 450a 733d 7e22 473e 2987 54be ae5e 033e
000000d0: 5a6a 743d a42d 4e3e c530 863e 4c69 c9bd
000000e0: c300 193e 4258 8d3d 4f89 8bbd a4bc 01be
000000f0: 7312 7fbd ab60 ac3e d534 8abd b956 1dbd
00000100: 0304 f4bc 6209 ac3d c43b 103e c8d6 e33d
00000110: bc55 fa3c a65f 6d3e
